tutorials/1.4 - classifier/cifar_net.pth (torch, 251732 bytes, 10 tensors)

conv1.weight f4 [6, 3, 5, 5]
0.5484497 0.5220585 0.41301885 0.2650354 0.20034717 0.41649252 0.20891891 0.19059972
0.07772035 -0.00985855 0.18471423 0.06809711 0.12540838 -0.006938199 0.12842895 -0.1500656
-0.16944748 0.048757143 -0.07731061 0.076047905 -0.44833866 -0.26210764 -0.18796763 -0.0725699
0.0982495 -0.11117529 -0.1857051 -0.2868555 -0.39630443 -0.3557305 -0.23793897 -0.27974945
-0.18562295 -0.28710404 -0.17909713 -0.23479821 -0.24433629 -0.22092424 -0.03446093 -0.039623685
-0.20458011 -0.2876456 -0.05500732 -0.017980408 0.15484743 -0.36049786 -0.19710636 -0.12001225
0.14149179 0.2253961 0.008521798 -0.05346508 -0.147805 -0.13689299 -0.20165129 0.098644294
-0.01109043 -0.043334033 -0.026288122 0.021575656 0.008769623 -0.09600086 -0.120724924 0.19451001
0.21278034 -0.18683852 -0.0717147 0.003718562 0.30740967 0.26572892 -0.07317826 -0.13282512
0.22495382 0.2747841 0.46670386 0.05809843 -0.21176152 -0.2229969 -0.16537409 -0.17239168
0.211949 0.40211943 0.42859003 0.46712208 0.2912092 0.087546974 0.5138561 0.46629435
0.49329793 0.012558155 -0.38343918 -0.30147412 -0.3658471 -0.15687484 -0.4833691 -0.24936587
-0.25320837 -0.404315 -0.21068935 -0.2476312 0.042140506 -0.22125973 -0.3270694 -0.18219502
-0.015473614 0.31433368 0.23958881 0.3027729 0.21515243 0.22430399 0.031176137 0.39632964
0.45588303 0.34347942 0.15328132 -0.33517206 -0.19003786 -0.41658592 -0.27404568 -0.25941426
-0.09159882 -0.22194715 -0.33837935 -0.14000906 -0.007703337 -0.16623947 -0.35140914 -0.35874227
-0.22363138 -0.19883756 0.020379081 0.09563101 -0.038644686 0.110530674 0.042786006 0.1473734
0.13273852 0.16417415 0.36167988 0.044192128 -0.01752072 0.031010324 -0.122348025 -0.042301677
-0.067727655 0.3058341 0.121623494 0.017422065 0.1504305 0.18169053 0.06894115 -0.020005433
-0.11040528 -0.201983 0.3356706 0.0774064 0.1654536 -0.009704063 -0.4050172 -0.010256512
0.06839037 0.2221025 0.05289463 -0.27831015 -0.08014598 0.08505662 0.2825325 0.046561234
-0.22507262 -0.07961528 -0.08939549 0.029756749 0.03309058 -0.19522496 0.08323371 0.019946404
-0.041762102 -0.27063698 -0.16936769 0.06462312 0.07692607 0.3269161 -0.16987546 -0.32548535
0.029393865 0.14511213 0.352998 -0.107160516 -0.40228403 -0.21643874 0.16020332 0.21609151
0.04813082 -0.3644119 -0.010206268 0.15184332 0.040841885 -0.053740818 -0.26926306 0.090939425
0.069480844 -0.025412444 -0.0741724 -0.2538498 0.1474559 0.024579266 0.35289982 -0.09220512
-0.43132842 -0.08916885 0.21581964 0.47856098 -0.00067157036 -0.34261295 -0.22612013 0.08796599
0.38377094 -0.011127572 -0.2951938 -0.13883756 0.2154869 0.26004753 -0.02882598 -0.13182396
0.05625985 0.004330364 -0.17229733 -0.17073949 -0.14864072 -0.18075658 -0.22268538 -0.20788886
-0.115812436 -0.11908286 -0.15353712 -0.16688609 -0.044136252 -0.2115662 -0.16716485 -0.08491856
-0.122252375 -0.26789525 -0.27970845 -0.16654979 -0.2629993 -0.29702765 -0.2623793 -0.24146098
-0.13691454 -0.22377774 -0.0058060284 0.07456183 -0.07261356 -0.089609936 0.028342009 0.09265702
00000000: 3367 0c3f a0a5 053f 3577 d33e b8b2 873e
00000010: cf27 4d3e 823e d53e d7ee 553e 932c 433e
00000020: d92b 9f3d c185 21bc ba25 3d3e 7f76 8b3d
00000030: 0e6b 003e d559 e3bb e182 033e ccaa 19be
00000040: a483 2dbe 92b5 473d 0655 9ebd 01bf 9b3d
00000050: a58c e5be f932 86be 967a 40be 879f 94bd
00000060: 0937 c93d dfaf e3bd 7a29 3ebe b9de 92be
00000070: 6ae8 cabe 4f22 b6be 46a6 73be 523b 8fbe
00000080: f113 3ebe 4dff 92be 3d65 37be f16e 70be
00000090: 4b33 7abe f739 62be e726 0dbd 724c 22bd
000000a0: 737d 51be 4946 93be 5b4f 61bd a64b 93bc
000000b0: 5390 1e3e 2d93 b8be 40d6 49be fcc8 f5bd
000000c0: 39e3 103e 3cce 663e 039f 0b3c 33fe 5abd
000000d0: 325a 17be ad2d 0cbe ad7d 4ebe 0506 ca3d
000000e0: a3b4 35bc 077f 31bd 305a d7bc 6ebf b03c
000000f0: 77ae 0f3c 199c c4bd a13e f7bd a22d 473e
00000100: 17e3 593e 9952 3fbe 28df 92bd 1eb3 733b
00000110: cd64 9d3e 9f0d 883e 7cde 95bd 4f03 08be
00000120: 4b5a 663e 80b0 8c3e cff3 ee3e 9ff8 6d3d
00000130: 03d8 58be 4d59 64be d357 29be 7287 30be
00000140: 2909 593e 99e2 cd3e 2770 db3e a02a ef3e
00000150: 5f19 953e d44b b33d 138c 033f 22be ee3e
00000160: 8c91 fc3e b8c0 4d3c 2452 c4be d15a 9abe
00000170: 5050 bbbe cca3 20be 287c f7be c459 7fbe
00000180: 87a4 81be 6002 cfbe f3be 57be 0993 7dbe
00000190: 869b 2c3d e991 62be a475 a7be 5591 3abe
000001a0: 0b85 7dbc 58f0 a03e c556 753e 0d05 9b3e
000001b0: eb50 5c3e f2af 653e 1965 ff3c b8eb ca3e
000001c0: 8069 e93e 89dc af3e c7f5 1c3e ac9b abbe
000001d0: 4999 42be c04a d5be b74f 8cbe f2d1 84be
000001e0: 2a98 bbbd 1d46 63be 0f40 adbe 895e 0fbe
000001f0: 466c fcbb ae3a 2abe e6eb b3be 11ad b7be
00000200: a0ff 64be 139c 4bbe 08f2 a63c 31da c33d
00000210: e449 1ebd e85d e23d 6140 2f3d 0de9 163e
00000220: 9bec 073e 451d 283e 1b2e b93e ce02 353d
00000230: 9d87 8fbc 5d09 fe3c 9a91 fabd 8644 2dbd
00000240: ccb4 8abd 4a96 9c3e bd15 f93d b8b8 8e3c
00000250: 740a 1a3e 150d 3a3e 0531 8d3d 6fe2 a3bc
00000260: 2a1c e2bd a2d4 4ebe 04dd ab3e 3f87 9e3d
00000270: ab6c 293e cafd 1ebc 6a5e cfbe ee0a 28bc
00000280: 4010 8c3d d66e 633e 0aa8 583d ab7e 8ebe
00000290: 9323 a4bd 2a32 ae3d 1aa8 903e feb6 3e3d
000002a0: 7079 66be 560d a3bd fc14 b7bd 6dc4 f33c
000002b0: fd89 073d 0de9 47be 6f76 aa3d a466 a33c
000002c0: bd0e 2bbd ee90 8abe b96e 2dbe 2059 843d
000002d0: 6a8b 9d3d 8c61 a73e d5f3 2dbe 04a6 a6be
000002e0: 67cb f03c 4698 143e 27bc b43e f976 dbbd
000002f0: 2cf8 cdbe 1ea2 5dbe 570c 243e 1847 5d3e
00000300: d324 453d 3294 babe 3138 27bc d17c 1b3e
00000310: d249 273d 551f 5cbd d9dc 89be 733e ba3d
00000320: f94b 8e3d c22d d0bc b3e7 97bd 9af8 81be
00000330: aefe 163e 755a c93c 49af b43e 0ad6 bcbd
00000340: 14d7 dcbe 289e b6bd d3ff 5c3e f205 f53e
00000350: 530c 30ba f76a afbe 098c 67be 8327 b43d
00000360: a07d c43e 6b50 36bc a423 97be 6f2b 0ebe
00000370: 99a8 5c3e f324 853e 7624 ecbc dcfc 06be
00000380: ba70 663d bae5 8d3b b66e 30be 55d6 2ebe
00000390: 4635 18be 4118 39be a307 64be d1e0 54be
000003a0: 122f edbd b7e1 f3bd d638 1dbe 30e4 2abe
000003b0: 37c8 34bd cfa4 58be 432d 2bbe c8e9 adbd
000003c0: 745f fabd 9129 89be f235 8fbe 078c 2abe
000003d0: d8a7 86be 0214 98be 9456 86be 8c41 77be
000003e0: 5333 0cbe fe25 65be 7f40 bebb dfb3 983d
000003f0: 6bb6 94bd 6a85 b7bd 802d e83c f7c2 bd3d

conv1.bias f4 [6]
-0.3602521 -0.50700843 -0.12146801 0.5062227 0.09500222 -0.051755816
00000000: f772 b8be 4ecb 01bf 38c4 f8bd d097 013f
00000010: 8690 c23d e8fd 53bd

conv2.weight f4 [16, 6, 5, 5]
-0.046839464 -0.18219845 -0.22858028 -0.27118015 -0.17321572 0.0084712645 -0.030260304 -0.09693645
-0.022371763 0.011024183 0.20615168 0.17874908 0.060577925 0.08863988 0.21936351 0.088743776
0.1593437 0.15379281 0.17490864 0.35080144 -0.036985155 -0.029865604 0.0069807493 0.055669587
0.08236372 0.17743786 0.14981498 0.021460187 -0.046018854 0.030551946 0.09775834 0.026588611
-0.065828584 0.068080306 0.1622748 0.07462036 0.1665603 0.13796525 0.15436246 0.10244086
0.120137 0.085318275 0.04186196 0.12741442 0.19829543 0.14449115 0.23987351 0.30821824
0.16496646 0.0152540915 0.043560207 -0.083464086 -0.08669807 -0.125456 -0.09146773 0.03748883
-0.18077955 -0.21233946 -0.138512 0.04554891 0.0329558 -0.11657657 -0.15325409 -0.07170558
0.0026412178 0.19312522 -0.031420425 -0.17707697 -0.15723898 0.053415917 0.26963443 0.023278818
-0.027049901 -0.12889403 0.0562501 0.17223984 0.022794843 0.02967007 0.010864201 0.049614348
0.045474306 0.048627716 0.042145006 0.1320208 0.07786837 -0.043410894 0.0067480323 0.0838034
0.007631436 0.04518185 -0.0057258336 -0.02086496 -0.10510552 -0.05856295 -0.056377474 0.034071602
0.00056928874 0.0007706749 -0.06707189 -0.08660001 -0.023534032 -0.04235288 -0.10964401 -0.012865463
0.0039613317 -0.03962318 0.047591336 0.05127231 -0.057184633 0.0066410047 -0.11937594 0.030255264
0.009474506 0.024067676 -0.0012444226 -0.20019834 -0.15096009 -0.106381714 -0.045292452 -0.090602584
-0.058635153 -0.10068006 -0.095269576 -0.095344245 -0.11559097 -0.057129573 -0.06267736 -0.11710994
-0.04383834 -0.02993156 0.0012919167 -0.14825325 -0.20515388 -0.12485863 -0.06511141 -0.0062309233
-0.07296818 -0.10017375 -0.12537244 -0.12292866 0.00035865724 -0.05701768 -0.07742494 -0.11149093
-0.011671484 -0.13079087 0.05074345 0.07547379 0.059788052 0.15549351 0.036963865 -0.06346229
-0.007177144 -0.10310267 -0.065002196 0.0035603796 -0.031784043 -0.07211007 -0.01466622 0.0041858586
0.0049682264 -0.034398317 -0.064998806 0.08237922 0.22925895 0.0049625905 0.013375463 0.06634219
0.07095565 0.19609924 0.008760069 -0.077454165 0.1581795 0.064588755 0.05731935 -0.0902381
-0.08137328 0.069777675 0.006025923 0.1697828 -0.1226293 -0.093932256 0.021219993 0.08412696
-0.112955496 -0.08537881 -0.009137827 0.07561943 0.008896669 -0.12621826 -0.0068389513 -0.028694632
0.032139197 0.03106204 -0.049481176 -0.007010319 0.093202926 0.02805894 -0.10203447 -0.15465523
0.0068940194 0.04251601 0.017034618 0.09684732 0.25523284 0.03407322 0.08300741 0.085306026
0.10755807 -0.028364416 0.13507521 0.20567401 0.072227225 -0.009314088 -0.023830032 0.0566973
0.046267986 -0.06634156 -0.032505333 0.018450994 -0.0045879763 -0.18084322 -0.09176733 -0.16499983
-0.11159574 0.041186307 0.07048178 -0.03728183 -0.040569186 -0.09104138 0.23087762 -0.009743161
0.06988455 -0.1071275 -0.20468786 0.17478324 0.12112877 -0.06829104 -0.14153412 -0.2815993
0.22319934 0.086779974 -0.13759457 -0.18454662 -0.2522895 0.24153595 0.16781288 0.15159674
-0.005312193 -0.078023024 0.03946553 -0.046810333 0.054098833 0.0005070534 -0.16382758 0.06834649
00000000: bdda 3fbd 3b92 3abe f310 6abe 20d8 8abe
00000010: 765f 31be 0fcb 0a3c 75e4 f7bc 9e86 c6bd
00000020: fd44 b7bc c69e 343c 6d19 533e 000a 373e
00000030: 8f20 783d d388 b53d d4a0 603e 4cbf b53d
00000040: ff2a 233e dd7b 1d3e 401b 333e 3f9c b33e
00000050: bf7d 17bd b6a8 f4bc c5be e43b cb05 643d
00000060: 4fae a83d 45b2 353e 1969 193e 46cd af3c
00000070: 447e 3cbd 1348 fa3c 8635 c83d 5cd0 d93c
00000080: 23d1 86bd b06d 8b3d 5d2b 263e 8fd2 983d
00000090: c98e 2a3e c346 0d3e 3111 1e3e 83cc d13d
000000a0: 630a f63d 59bb ae3d 7277 2b3d ed78 023e
000000b0: f50d 4b3e 7df5 133e 67a1 753e c8ce 9d3e
000000c0: f8ec 283e 4cec 793c 306c 323d 38ef aabd
000000d0: c28e b1bd 8a77 00be 6f53 bbbd e38d 193d
000000e0: 461e 39be 846f 59be 17d6 0dbe 7e91 3a3d
000000f0: a9fc 063d b2bf eebd a4ee 1cbe 60da 92bd
00000100: 4818 2d3b 9ec2 453e b4b2 00bd aa53 35be
00000110: 4103 21be a6ca 5a3d 860d 8a3e 38b3 be3c
00000120: c197 ddbc ccfc 03be 8166 663d a45f 303e
00000130: 40bc ba3c a60e f33c c3ff 313c 6a38 4b3d
00000140: 4443 3a3d db2d 473d 3ea0 2c3d 7630 073e
00000150: 7479 9f3d 9fcf 31bd 991e dd3b 1ea1 ab3d
00000160: 2011 fa3b 9b10 393d c69f bbbb feec aabc
00000170: 9041 d7bd b4df 6fbd 11ec 66bd aa8e 0b3d
00000180: 523c 153a 1e07 4a3a fd5c 89bd 595b b1bd
00000190: 71ca c0bc 377a 2dbd 0a8d e0bd aac9 52bc
000001a0: 0fce 813b ea4b 22bd 22ef 423d ea02 523d
000001b0: 6f3a 6abd c99c d93b 5f7b f4bd e3d9 f73c
000001c0: f53a 1b3c 9329 c53c e51b a3ba cb00 4dbe
000001d0: 4895 1abe a8de d9bd 9484 39bd d98d b9bd
000001e0: 6a2b 70bd 5931 cebd b21c c3bd d843 c3bd
000001f0: f5ba ecbd b300 6abd fd5c 80bd 56d7 efbd
00000200: d58f 33bd 0833 f5bc 8855 a93a b3cf 17be
00000210: dc13 52be e2b5 ffbd 2259 85bd c62c ccbb
00000220: 5770 95bd e527 cdbd a261 00be 05c2 fbbd
00000230: 290a bc39 5f8b 69bd f890 9ebd 5b55 e4bd
00000240: c139 3fbc 0bee 05be 5dd8 4f3d 0192 9a3d
00000250: 51e4 743d b139 1f3e 6c67 173d 84f8 81bd
00000260: 3f2e ebbb 7e27 d3bd df1f 85bd 4255 693b
00000270: fc2f 02bd 72ae 93bd 964a 70bc 8729 893b
00000280: 81cc a23b 40e5 0cbd 181e 85bd 70b6 a83d
00000290: dcc2 6a3e 3a9d a23b c224 5b3c 6ade 873d
000002a0: 3251 913d 3dce 483e 6486 0f3c 4aa0 9ebd
000002b0: cff9 213e 1c47 843d b2c7 6a3d c1ce b8bd
000002c0: 09a7 a6bd 99e7 8e3d 1b75 c53b 8bdb 2d3e
000002d0: 1225 fbbd 8e5f c0bd 8dd5 ad3c c14a ac3d
000002e0: 3655 e7bd 16db aebd d3b6 15bc 5cde 9a3d
000002f0: 56c3 113c 5c3f 01be 4819 e0bb 0111 ebbc
00000300: 64a4 033d d275 fe3c c6ac 4abd d1b6 e5bb
00000310: 2de1 be3d dddb e53c 73f7 d0bd f15d 1ebe
00000320: 3ae7 e13b 4525 2e3d 2f8c 8b3c e357 c63d
00000330: e1ad 823e 5c90 0b3d caff a93d edb4 ae3d
00000340: 6847 dc3d 7e5c e8bc 2851 0a3e 359c 523e
00000350: deeb 933d 1e9a 18bc 3337 c3bc 6e3b 683d
00000360: 8083 3d3d 15de 87bd 5024 05bd 8a26 973c
00000370: bc56 96bb f72e 39be 83f0 bbbd b7f5 28be
00000380: 4f8c e4bd f9b2 283d c058 903d d5b4 18bd
00000390: e02b 26bd e773 babd 2f6b 6c3e c7a1 1fbc
000003a0: a21f 8f3d aa65 dbbd b299 51be 61fa 323e
000003b0: 5c12 f83d 2cdc 8bbd 52ee 10be c92d 90be
000003c0: 5e8e 643e b3b9 b13d 97e5 0cbe caf9 3cbe
000003d0: 172c 81be 3355 773e 24d7 2b3e 2d3c 1b3e
000003e0: e811 aebb 89ca 9fbd 9ca6 213d 31bc 3fbd
000003f0: bd96 5d3d c7eb 043a 6bc2 27be 3ff9 8b3d

conv2.bias f4 [16]
-0.48600465 -0.23767594 0.9209425 -0.323778 0.35384694 0.65421945 0.26731175 0.04777445
-0.58675903 -0.21640801 0.5626008 -0.20067969 -0.09425243 0.08644149 0.04258569 -0.56694657
00000000: 9ad5 f8be 5261 73be e3c2 6b3f 3bc6 a5be
00000010: 6d2b b53e ed7a 273f 16dd 883e 24af 433d
00000020: d735 16bf 109a 5dbe 9b06 103f fa7e 4dbe
00000030: 6b07 c1bd 3c08 b13d 556e 2e3d 6923 11bf

fc1.weight f4 [120, 400]
-0.08436053 0.016202942 0.0058621033 -0.01934282 -0.058098257 -0.051565666 0.03948893 0.06181785
-0.0132827945 -0.05457166 0.0391992 0.025611557 0.049134817 0.061442286 0.02988681 0.029167144
-0.0037644168 0.029781364 0.011342607 0.08891254 0.06872374 0.01191126 0.0045392746 0.07653118
0.024890138 0.043354146 0.0026697435 0.034210093 -0.02269362 -0.013256733 0.026623629 -0.039984293
-0.056081694 -0.053588923 0.0058916654 -0.04006646 -0.008395178 -0.029548518 -0.016295737 0.019205712
-0.03598365 0.013865503 0.025848912 0.0025898616 0.025986165 0.07136825 0.07007072 0.06590322
-0.002216529 0.11462919 0.012186784 0.008964293 -0.025804162 -0.023461442 -0.0018172628 0.07113803
0.039640445 0.08351051 0.008911355 0.003092331 0.045395605 0.10933055 0.105444424 0.070791624
-0.034814343 -0.015245812 0.039157145 0.05794438 0.02062834 -0.04911796 -0.036194384 -0.021744033
0.018662833 0.0025654484 -0.011860244 -0.04586434 -0.053446617 -0.06792716 0.025848677 0.003318645
-0.007195041 -0.019817438 -0.026016075 0.01396479 -0.0042866617 -0.018731678 -0.026801048 -0.037613675
0.008291316 0.01052772 0.071173355 0.07523794 0.005798079 0.080933325 0.019247336 0.14757627
0.014742272 0.027879 0.08206289 -0.018315248 0.02929139 0.007037471 0.042941917 0.031986397
0.044739682 0.07029935 -0.06049101 0.077932 -0.0131160775 -0.00985772 -0.01047057 -0.03938619
0.037955005 0.0006448383 0.035644386 -0.02981431 -0.06618999 -0.10270857 -0.08086068 -0.04188876
-0.05626427 0.034170173 -0.07412997 -0.11361007 -0.09808758 -0.033840448 -0.0044943285 0.0476863
0.03624157 0.07581738 -0.036839552 -0.095009565 -0.0042978274 0.033631045 0.036935914 -0.042802654
0.021523332 -0.06112768 0.022075629 0.047913183 -0.03908048 -0.038667496 -0.019484237 0.014370886
-0.03940732 0.0030815096 -0.022264468 -0.01657969 0.031768315 0.0011582683 -0.010389778 0.00605777
-0.054449704 -0.10636171 -0.0927709 0.004295016 -0.050233714 -0.05197025 -0.017326064 -0.0022478981
-0.0035274564 0.020668617 0.027077744 0.0017238685 -0.0011576007 -0.05321527 0.0512688 0.03077408
0.094612986 0.060960174 -0.053388335 0.055540998 0.06620044 0.050113656 0.12354766 -0.06541267
-0.061048247 0.02280564 -0.035721738 -0.031470083 -0.02818687 0.010767935 -0.043749563 0.034843553
0.038784437 0.010545126 0.08066693 0.009073726 0.022910953 -0.015184737 -0.015472163 0.026809797
0.0058576344 0.025082717 0.043605823 -0.031331997 0.028216355 -0.0064985156 0.04021895 0.02023183
0.008039046 0.039939694 0.013196228 0.04267922 0.0037274552 0.045240004 -0.022974342 0.00923675
0.038339794 -0.037655503 0.0041275965 0.0064388323 0.011080537 -0.04231021 -0.028443053 -0.04462096
-0.037207473 -0.029390482 -0.051124178 0.00156624 -0.01790852 -0.012365555 0.0125369085 -0.036398694
0.011532422 0.024960808 0.01269988 -0.033472694 0.0027565644 0.07734246 0.024580767 0.010389233
0.04698791 0.03512149 0.057193816 -0.011109427 -0.026096301 -0.05579284 -0.0656671 0.03567647
-0.031928252 -0.057125814 -0.008564377 -0.050500054 0.032286223 -0.05828186 -0.0061852583 -0.03222047
0.008463274 0.0005494488 -0.0461867 -0.07401876 -0.0035917133 -0.08955865 -0.06158823 -0.038423784
00000000: 37c5 acbd 08bc 843c e316 c03b d574 9ebc
00000010: 70f8 6dbd 8536 53bd 25bf 213d b734 7d3d
00000020: 14a0 59bc 8886 5fbd 578f 203d 54cf d13c
00000030: 9741 493d e8aa 7b3d 2fd5 f43c efef ee3c
00000040: 6fb4 76bb 0cf8 f33c 58d6 393c c717 b63d
00000050: 08bf 8c3d 7227 433c 32be 943b 61bc 9c3d
00000060: 67e6 cb3c 1e94 313d ddf6 2e3b e21f 0c3d
00000070: f8e7 b9bc c532 59bc cc19 da3c 92c6 23bd
00000080: ebb5 65bd 0f80 5bbd df0e c13b ba1c 24bd
00000090: ee8b 09bc bc0f f2bc a37e 85bc 4c55 9d3c
000000a0: 9763 13bd 222c 633c 19c1 d33c abba 293b
000000b0: f0e0 d43c 8429 923d 3d81 8f3d 44f8 863d
000000c0: 3043 11bb b5c2 ea3d 14ab 473c f8de 123c
000000d0: 4063 d3bc 3632 c0bc 3931 eeba d1b0 913d
000000e0: 055e 223d 8f07 ab3d ef00 123c b5a8 4a3b
000000f0: bef0 393d b2e8 df3d 3ff3 d73d 33fb 903d
00000100: 7c99 0ebd 92c9 79bc 3e63 203d 1657 6d3d
00000110: c4fc a83c ea2f 49bd 9040 14bd 8b20 b2bc
00000120: cce2 983c 1521 283b 7851 42bc 3fdc 3bbd
00000130: d7ea 5abd 651d 8bbd 9bc0 d33c a07d 593b
00000140: 61c4 ebbb 2e58 a2bc aa1f d5bc 93cc 643c
00000150: 2077 8cbb 2d73 99bc df8d dbbc cc10 1abd
00000160: 4dd8 073c 757c 2c3c 56c3 913d 5916 9a3d
00000170: d0fd bd3b 5fc0 a53d 97ac 9d3c 3c1e 173e
00000180: 9289 713c 8062 e43c 9710 a83d dc09 96bc
00000190: 7ff4 ef3c 969a e63b dde3 2f3d 2b04 033d
000001a0: f540 373d 1bf9 8f3d 6cc5 77bd d09a 9f3d
000001b0: d1e4 56bc 4682 21bc c18c 2bbc 6a53 21bd
000001c0: b576 1b3d 5e0a 293a d9ff 113d 243d f4bc
000001d0: 9e8e 87bd df58 d2bd 499a a5bd 8c93 2bbd
000001e0: 5d75 66bd 06f6 0b3d 74d1 97bd 65ac e8bd
000001f0: 24e2 c8bd 489c 0abd 2945 93bb b652 433d
00000200: 0a72 143d 2446 9b3d 12e5 16bd 6094 c2bd
00000210: cad4 8cbb b5c0 093d 1d4a 173d d651 2fbd
00000220: b351 b03c 0561 7abd f3d7 b43c 9d40 443d
00000230: da12 20bd cf61 1ebd 689d 9fbc dd73 6b3c
00000240: 9269 21bd 27f3 493b f963 b6bc 21d2 87bc
00000250: 7e1f 023d 09d1 973a e339 2abc 4280 c63b
00000260: a706 5fbd 2bd4 d9bd abfe bdbd 35bd 8c3b
00000270: dec1 4dbd c2de 54bd 64ef 8dbc 7951 13bb
00000280: e62c 67bb 3b51 a93c 25d2 dd3c 6ef3 e13a
00000290: a2ba 97ba 41f8 59bd 3cff 513d ec19 fc3c
000002a0: 74c4 c13d 60b1 793d baad 5abd f57e 633d
000002b0: 1994 873d fa43 4d3d 8e06 fd3d 14f7 85bd
000002c0: ba0d 7abd e5d2 ba3c f550 12bd c6e6 00bd
000002d0: 27e8 e6bc fe6b 303c be32 33bd 1db8 0e3d
000002e0: 6edc 1e3d 77c5 2c3c b434 a53d f7a9 143c
000002f0: c0af bb3c 67c9 78bc f57e 7dbc 38a0 db3c
00000300: 66f1 bf3b 457a cd3c 059c 323d fb55 00bd
00000310: fc25 e73c 80f1 d4bb a0bc 243d 39bd a53c
00000320: 34b6 033c ce97 233d fe34 583c 68d0 2e3d
00000330: 5248 743b 954d 393d b034 bcbc bd55 173c
00000340: 300a 1d3d a83c 1abd ca40 873b d7fc d23b
00000350: 248b 353c 794d 2dbd 6801 e9bc 78c4 36bd
00000360: dd66 18bd 4fc4 f0bc 9667 51bd 4b4a cd3a
00000370: e3b4 92bc e698 4abc 9b67 4d3c cc16 15bd
00000380: 7cf2 3c3c 9c7a cc3c 2813 503c aa1a 09bd
00000390: 7aa7 343b b965 9e3d 9b5d c93c 9a37 2a3c
000003a0: 6576 403d 8ddb 0f3d 1044 6a3d 5004 36bc
000003b0: e9c7 d5bc 0887 64bd 797c 86bd 7d21 123d
000003c0: 33c7 02bd c2fc 69bd 9a51 0cbc 25d9 4ebd
000003d0: 8f3e 043d f6b8 6ebd b5ad cabb 9df9 03bd
000003e0: 8ba9 0a3c e308 103a 442e 3dbd 2697 97bd
000003f0: f362 6bbb 876a b7bd f143 7cbd 4262 1dbd

fc1.bias f4 [120]
-0.007896106 0.0001169859 -0.02521064 0.029638596 0.032625824 -0.041376885 -0.022904377 0.26675013
0.12467086 -0.16763547 -0.030538788 0.031880546 -0.020630658 0.14922874 0.046929613 0.073731616
0.02730928 0.07165066 0.09471963 -0.022350572 0.1105013 0.051378753 -0.031204771 -0.033893384
0.06722585 0.09354869 -0.061217126 -0.07843506 -0.08704041 0.09894116 0.11985549 0.086438134
0.041848257 0.014881636 -0.08306757 0.07101905 0.04872017 -0.04469252 -0.047012676 0.031866323
0.07648024 0.21789289 -0.0039018902 -0.0076403315 0.005528327 0.040846992 -0.0059383083 0.15806949
0.018811164 0.13102375 -0.058909368 -0.009906845 -0.05330186 -0.048043836 -0.00036816 -0.04465917
0.0042431355 0.13134521 -0.006940175 0.061303083 -0.0515754 -0.033417486 -0.10251623 0.0046032877
0.04618946 0.10316299 -0.008005246 0.011636643 0.113258556 -0.06503507 -0.02325932 0.04544301
-0.0905312 -0.031210983 -0.03953321 -0.036553428 -0.06893116 0.18470478 -0.011320401 0.06946456
-0.03328525 0.0769804 -0.11613862 -0.12249331 0.024623452 0.025565749 0.008879861 0.118412
-0.0009221018 0.09387693 0.1258786 -0.015634887 0.017391736 0.1255624 0.1622511 0.11917775
0.13651772 0.0023690793 0.028134529 -0.02447201 -0.015207269 -0.034776825 -0.046885762 -0.02235373
0.0072264965 0.09585773 -0.03018172 0.03538685 -0.16121751 -0.00926247 0.10574349 -0.048329648
0.054783534 0.039390367 -0.027021427 0.1499911 -0.051894993 0.14083865 -0.021710038 0.016250731
00000000: ab5e 01bc 5456 f538 8b86 cebc a4cc f23c
00000010: a8a2 053d cf7a 29bd f6a1 bbbc 7993 883e
00000020: 7053 ff3d a2a8 2bbe 7b2c fabc 2d95 023d
00000030: a001 a9bc 6bcf 183e 4439 403d 9a00 973d
00000040: b6b7 df3c 95bd 923d 5efc c13d 8c18 b7bc
00000050: 814e e23d 8772 523d 26a1 ffbc cad3 0abd
00000060: b5ad 893d 7596 bf3d cfbe 7abd 90a2 a0bd
00000070: 3e42 b2bd aaa1 ca3d cc76 f53d 7a06 b13d
00000080: 1469 2b3d 1bd2 733c 551f aabd 7072 913d
00000090: cd8e 473d 810f 37bd 5d90 40bd 4386 023d
000000a0: aca1 9c3d 501f 5f3e dbb6 7fbb bf5b fabb
000000b0: f826 b53b 2d4f 273d 2496 c2bb f8dc 213e
000000c0: df19 9a3c 172b 063e f34a 71bd 5250 22bc
000000d0: 0d53 5abd 9dc9 44bd 9905 c1b9 89ec 36bd
000000e0: 000a 8b3b 5c7f 063e 686a e3bb f118 7b3d
000000f0: ba40 53bd c6e0 08bd 07f4 d1bd 2dd7 963b
00000100: 2931 3d3d 1e47 d33d 6f28 03bc 9ea7 3e3c
00000110: 1af4 e73d 1b31 85bd 548a bebc 7322 3a3d
00000120: 6c68 b9bd 2dae ffbc 93ed 21bd 0cb9 15bd
00000130: c82b 8dbd 4023 3d3e 3479 39bc 6f43 8e3d
00000140: 1d56 08bd e6a7 9d3d 16da edbd c6dd fabd
00000150: 1fb7 c93c 436f d13c d67c 113c fe81 f23d
00000160: 34b9 71ba 8c42 c03d 52e6 003e bc14 80bc
00000170: 1d79 8e3c 6e93 003e 2725 263e 7713 f43d
00000180: 4dcb 0b3e 8e42 1b3b 627a e63c 8679 c8bc
00000190: e927 79bc 2572 0ebd 490b 40bd 2b1f b7bc
000001a0: 3fcc ec3b 0f51 c43d a83f f7bc cdf1 103d
000001b0: 3416 25be 9dc1 17bc 0b90 d83d 4ff5 45bd
000001c0: b364 603d cb57 213d 0a5c ddbc 4497 193e
000001d0: d88f 54bd 0238 103e 40d9 b1bc 4120 853c

fc2.weight f4 [84, 120]
-0.04921168 -0.08042401 0.16864175 0.09835919 -0.0922659 0.02102834 -0.078833014 0.11436978
0.08854967 -0.12404442 -0.03171733 0.021530665 -0.07047074 0.0074748304 0.0225791 0.06843138
0.012872645 -0.004774378 0.036510766 -0.09034162 0.013800868 -0.04751481 -0.063139595 0.07300122
-0.03731314 0.06635156 -0.09246224 0.02765606 0.0070325555 -0.008533105 0.003387266 -0.11599259
0.027649295 0.058490958 0.06812419 0.024198823 -0.08676956 -0.022384532 0.038084492 0.021620633
0.0699497 0.13961387 0.011107971 -0.015353594 -0.021589318 -0.08098602 -0.07063968 0.009939381
0.0076400996 0.04152181 -0.12109251 -0.17732783 0.05857066 -0.006226977 -0.062234618 0.021881677
0.03243675 -0.022398341 -0.059797898 0.021429665 -0.029742636 -0.09443261 -0.047099773 -0.008286986
0.009739835 -0.079383366 0.084399946 0.103448674 0.09235403 0.060270023 0.103367016 0.03733791
-0.11587962 0.012687452 -0.045156717 0.0127648935 -0.22657484 0.11346244 0.035921697 0.037302643
-0.032395765 -0.102097586 0.0702278 -0.0051652016 -0.07610807 0.05008113 -0.038641427 0.06379333
-0.034048654 0.13687536 0.007067386 -0.12096772 -0.0064672315 0.03780936 0.015430312 0.05487171
0.11076952 -0.039034083 0.06478924 0.025094688 -0.07761751 -0.018794186 0.01565485 -0.028918056
0.04785087 -0.049691595 0.025009297 -0.07791518 -0.10750997 0.0021548057 0.06005902 -0.038442224
0.001612341 -0.07970394 -0.07072849 0.11967631 -0.0090113245 0.14079347 0.04503462 0.09102719
0.065911576 0.07553872 0.05145964 0.06502524 -0.0027436 0.07817111 0.074537866 -0.08044105
0.069200665 0.021638654 0.083694726 0.02893269 -0.014067601 -0.08326568 -0.064360105 -0.013271414
-0.019081611 -0.08364517 0.019350283 -0.08755488 -0.058709946 0.03836966 0.044767596 0.0039765285
0.058130205 -0.02252351 -0.062341336 -0.060743045 0.06500502 -0.029081212 0.01292745 -0.0488486
-0.08698504 -0.016207032 0.06616857 0.09219889 0.053212997 0.07455413 0.020082887 -0.087143146
0.08214052 0.014513106 0.040918417 -0.054446977 0.022496928 -0.06762627 -0.047822002 -0.06664386
-0.021456197 0.015157817 -0.052593283 -0.10428703 -0.08283711 -0.055423573 0.030771919 0.086505614
-0.020488927 0.03211396 -0.052295934 -0.08928311 -0.07446346 -0.0601583 -0.0431197 -0.063168116
-0.03574109 0.03501786 -0.067703396 -0.085198194 -0.057704333 -0.012365221 0.07043163 -0.017704595
0.03949182 -0.06912581 0.01889847 -0.05593892 -0.051109154 0.0005782888 -0.09692431 0.08187783
0.08561756 0.026856221 0.031552948 -0.0709875 0.02323343 0.019885777 -0.09865926 0.058419753
0.01738662 -0.016462607 -0.03301784 0.019874489 0.020828675 0.058606327 -0.08693085 -0.084612206
0.07513888 0.056042388 0.012774506 0.042359058 -0.030610472 0.06966925 0.008534543 0.004591452
0.07278688 0.034836214 -0.02776004 0.015237585 0.0061409255 -0.038413353 -0.05782473 -0.07270315
-0.078865126 -0.027258975 0.07426547 0.033394355 -0.014246984 -0.09774067 -0.07847229 -0.081737615
0.05674977 0.017094024 -0.047192212 -0.055720687 -0.031147644 -0.055795275 0.077182226 -0.08895289
0.052071717 -0.008023423 0.007819048 0.060430788 0.032505628 -0.065016665 0.06552891 0.06957792
00000000: 3092 49bd 58b5 a4bd 6cb0 2c3e 8b70 c93d
00000010: e7f5 bcbd a043 ac3c 3473 a1bd b43a ea3d
00000020: 8859 b53d 000b febd 08ea 01bd 1461 b03c
00000030: f752 90bd 6cef f43b cef7 b83c c025 8c3d
00000040: c9e7 523c 6372 9cbb 508c 153d 0705 b9bd
00000050: 091d 623c e49e 42bd 554f 81bd aa81 953d
00000060: aad5 18bd 54e3 873d d85c bdbd f68e e23c
00000070: 5a71 e63b 70ce 0bbc e5fc 5d3b 868d edbd
00000080: c680 e23c 3794 6f3d b284 8b3d 9c3c c63c
00000090: 3db4 b1bd c45f b7bc 7cfe 1b3d c11d b13c
000000a0: ca41 8f3d f0f6 0e3e 35fe 353c a48d 7bbc
000000b0: 15dc b0bc 00dc a5bd 89ab 90bd c9d8 223c
000000c0: cd59 fa3b c612 2a3d 5aff f7bd 6d95 35be
000000d0: cae7 6f3d ab0b ccbb bae9 7ebd 3441 b33c
000000e0: 66dc 043d ba7c b7bc a4ee 74bd 448d af3c
000000f0: d4a6 f3bc e265 c1bd b1eb 40bd 23c6 07bc
00000100: d493 1f3c bf93 a2bd e1d9 ac3d e6dc d33d
00000110: 1c24 bd3d b3dd 763d 16b2 d33d a3ef 183d
00000120: 4b52 edbd 08df 4f3c 40f6 38bd d823 513c
00000130: 3c03 68be ff5e e83d a122 133d a8ca 183d
00000140: 6cb1 04bd 8a18 d1bd 98d3 8f3d da40 a9bb
00000150: 8cde 9bbd df21 4d3d 7946 1ebd 14a6 823d
00000160: 9a76 0bbd 0e29 0c3e 8895 e73b edbd f7bd
00000170: 12eb d3bb fddd 1a3d 6bcf 7c3c 28c1 603d
00000180: 21db e23d 34e2 1fbd 39b0 843d 6093 cd3c
00000190: eef5 9ebd 44f6 99bc 9a3e 803c 8fe5 ecbc
000001a0: 46ff 433d 6a89 4bbd 4ce0 cc3c fe91 9fbd
000001b0: 302e dcbd a437 0d3b 7200 763d 9875 1dbd
000001c0: 3055 d33a d23b a3bd 19da 90bd da18 f53d
000001d0: 3ca4 13bc 2a2c 103e 3976 383d 776c ba3d
000001e0: a6fc 863d 0bb4 9a3d 58c7 523d f42b 853d
000001f0: f8cd 33bb 2d18 a03d 4fa7 983d 47be a4bd
00000200: 14b9 8d3d 8c43 b13c 2468 ab3d 4004 ed3c
00000210: cc7b 66bc 3287 aabd 3bcf 83bd 5870 59bc
00000220: 0a51 9cbc 294e abbd 7c84 9e3c f94f b3bd
00000230: d779 70bd 8129 1d3d 3a5e 373d 8a4d 823b
00000240: f019 6e3d 3983 b8bc a159 7fbd b3cd 78bd
00000250: 5a21 853d b93b eebc a8cd 533c 7815 48bd
00000260: 3625 b2bd 9cc4 84bc 6383 873d c6d2 bc3d
00000270: dff5 593d d6af 983d de84 a43c 1b78 b2bd
00000280: 4a39 a83d 61c8 6d3c 129a 273d cb03 5fbd
00000290: 7a4b b83c a47f 8abd 01e1 43bd 937c 88bd
000002a0: e8c4 afbc 7e58 783c 0e6c 57bd 7094 d5bd
000002b0: 81a6 a9bd d403 63bd 6415 fc3c db29 b13d
000002c0: 65d8 a7bc ed89 033d 4334 56bd 10da b6bd
000002d0: 4c80 98bd 8d68 76bd 489e 30bd 495e 81bd
000002e0: 4065 12bd e36e 0f3d 14a8 8abd 647c aebd
000002f0: 615b 6cbd 7f97 4abc 753e 903d 3a09 91bc
00000300: 2dc2 213d d591 8dbd f7d0 9a3c 3520 65bd
00000310: d557 51bd 4e98 173a 4180 c6bd 90af a73d
00000320: 4258 af3d 9401 dc3c aa3d 013d e561 91bd
00000330: 0954 be3c 7fe7 a23c de0d cabd 8d49 6f3d
00000340: 636e 8e3c 97dc 86bc b73d 07bd d3cf a23c
00000350: e6a0 aa3c 300d 703d cd08 b2bd 2a49 adbd
00000360: 6ae2 993d b48c 653d 294c 513c b180 2d3d
00000370: d0c2 fabc c0ae 8e3d 78d4 0b3c e473 963b
00000380: 4a11 953d 6bb0 0e3d 0669 e3bc 10a7 793c
00000390: d139 c93b 5257 1dbd a0d9 6cbd 64e5 94bd
000003a0: 0a84 a1bd 374e dfbc 7f18 983d 85c8 083d
000003b0: 2f6c 69bc 432c c8bd 14b6 a0bd 0d66 a7bd
000003c0: 7272 683d c408 8c3c 9f4c 41bd 603b 64bd
000003d0: 5829 ffbc 9689 64bd b711 9e3d ef2c b6bd
000003e0: 2749 553d ad74 03bc 771b 003c 4686 773d
000003f0: 9f24 053d 7527 85bd 0534 863d de7e 8e3d

fc2.bias f4 [84]
0.30017486 -0.0037499717 -0.014841444 0.09663315 0.19428003 -0.00839583 0.157689 0.056696966
-0.10920454 0.10411775 0.08382206 -0.09401964 -0.0676385 0.051596582 0.013311178 0.009337853
0.11255036 0.099148564 0.27851376 0.11445661 0.009916281 0.09059163 -0.041137718 0.1421145
-0.08447394 0.018173147 -0.17998078 0.20053351 0.048896845 -0.04714677 0.054975864 -0.0661879
-0.038917914 0.008491778 -0.042838708 -0.016725548 0.045149013 0.2981732 0.04080851 -0.027579334
-0.026837971 0.11049421 0.051098283 -0.059971888 -0.00414864 -0.0744914 0.026632102 0.011141301
0.35403788 0.18409108 -0.030829445 -0.09547675 0.050732598 0.2878153 -0.018969253 -0.13064626
-0.031775817 0.07661755 0.07367417 -0.017988812 -0.0358507 0.06220094 0.09687753 -0.05075589
0.055981826 -0.07760389 -0.034152694 0.04768253 0.42887616 0.20988907 0.045888785 -0.04298906
-0.04241766 -0.07347365 0.05703547 0.07831638 0.20890483 -0.032468952 0.09840221 0.16354953
-0.050005678 0.118978254 0.240687 0.12137797
00000000: 85b0 993e 16c2 75bb 8729 73bc 9ae7 c53d
00000010: 58f1 463e aa8e 09bc 3a79 213e 143b 683d
00000020: a1a6 dfbd b03b d53d e6aa ab3d 5e8d c0bd
00000030: 0e86 8abd f056 533d 2117 5a3c cbfd 183c
00000040: ce80 e63d 670e cb3d 5b99 8e3e 3a68 ea3d
00000050: e677 223c 1b88 b93d 0680 28bd 7786 113e
00000060: ac00 adbd dadf 943c e24c 38be a858 4d3e
00000070: 0f48 483d f91c 41bd 5f2e 613d 868d 87bd
00000080: 6468 1fbd 1921 0b3c a477 2fbd 0404 89bc
00000090: 2cee 383d 28aa 983e d326 273d 0eee e1bc
000000a0: 4edb dbbc ca4a e23d 6f4c 513d 15a5 75bd
000000b0: 51f1 87bb f28e 98bd 912b da3c 018a 363c
000000c0: 7444 b53e 5f82 3c3e 088e fcbc 5089 c3bd
000000d0: fccc 4f3d 875c 933e 6865 9bbc 22c8 05be
000000e0: 5c27 02bd a9e9 9c3d 7ce2 963d 465d 93bc
000000f0: 2fd8 12bd 6ac6 7e3d ba67 c63d 68e5 4fbd
00000100: 334d 653d caee 9ebd b2e3 0bbd c24e 433d
00000110: a895 db3e 29ed 563e e1f5 3b3d 4c15 30bd
00000120: 24be 2dbd 5a79 96bd 069e 693d 5764 a03d
00000130: 26eb 553e 2afe 04bd 1987 c93d 8779 273e
00000140: c1d2 4cbd dfaa f33d a776 763e 0395 f83d

fc3.weight f4 [10, 84]
-0.29142392 0.018114623 -0.050321992 0.1322318 -0.020349544 -0.094127074 -0.120762534 0.072977245
-0.048496556 0.18605347 0.1217281 -0.06344614 0.008490083 -0.12483163 0.041252065 0.13833027
0.033442676 0.14327271 -0.18155305 0.035578497 0.21870013 -0.11058701 0.032197453 -0.116186075
-0.007678467 0.02254175 0.12870905 0.082750894 0.18258679 -0.031200439 0.26527262 0.098428786
0.13291466 0.0772727 0.08773978 -0.15512662 -0.06981415 0.2678219 0.17803532 0.03370351
-0.06647232 -0.10154213 0.015039841 0.0040931166 0.10773026 -0.07920589 0.068649836 0.21109214
-0.014742731 0.019375123 0.055790212 0.15230142 -0.056777723 0.18685028 -0.16526075 0.24411152
0.09232441 -0.07324947 -0.10953581 0.022820557 -0.06056888 -0.05549216 -0.16058743 0.16793479
-0.065898046 -0.099513166 0.018471375 0.04143709 -0.26601 0.10359542 0.041887924 -0.07989049
-0.07926838 -0.044077 0.20497887 -0.029505752 0.19828008 0.04744574 0.18343052 -0.0225474
0.033655792 -0.19502892 -0.12260234 -0.023971241 -0.2933558 0.036005232 0.052478537 -0.10959687
-0.3261214 -0.04276144 -0.20980203 -0.24786244 0.37056047 -0.066546775 0.28802246 0.085358545
-0.057312425 0.13240097 -0.00246653 -0.007720897 -0.1343656 -0.13006774 -0.117611125 -0.016031085
-0.03596559 -0.09561837 0.055992343 -0.048630305 0.0038809662 0.066043146 -0.16684671 0.04381312
0.113002375 0.02812331 0.0015351491 -0.12516843 -0.0009494455 0.3759237 0.113112405 0.047307476
-0.110665545 -0.15249814 -0.09154506 -0.04945865 -0.10157191 0.14133607 -0.14404912 -0.078420356
0.26887104 0.20669341 0.14409904 -0.07900411 -0.16778967 0.085708134 -0.0026597306 0.16169146
0.0565846 0.18499957 -0.0030229134 0.24398814 0.008915808 -0.04433369 -0.17521669 0.09423526
-0.049760584 -0.103839345 0.06499715 -0.09131018 0.16352896 -0.061257556 -0.023082802 -0.08803942
-0.43680036 -0.20940365 -0.07523154 0.08723939 -0.08113257 0.12514783 -0.09228223 -0.10173756
-0.13500531 0.049067177 0.04427389 -0.20555378 0.21168824 -0.16738312 0.015223693 0.07204262
0.13140465 0.09616763 -0.10894112 0.19585927 0.12724613 -0.034405854 -0.17499003 0.23181538
-0.12883393 -0.029913267 0.0039064097 -0.05810389 -0.04422708 0.03841765 0.036373664 0.034297537
0.14845416 0.27351463 -0.06059801 -0.1000068 0.0333497 0.080148846 0.08990129 0.21992059
0.028639257 -0.079944864 0.2262941 -0.026632436 -0.015908642 0.093644544 -0.0253349 0.016212337
-0.08226507 -0.091041125 0.068559036 0.073328026 -0.13614355 0.15207385 0.15171976 0.13403277
-0.03346989 -0.15558708 -0.046430655 0.028336668 -0.24836947 0.030816277 0.026403613 0.078393824
-0.11464289 -0.07424934 0.014078841 0.011696121 0.08182698 -0.066079654 -0.17403518 -0.07115768
-0.07631603 0.05946614 0.025099505 -0.08443006 -0.0760699 -0.038246587 0.12806168 0.26279122
-0.17001687 -0.11446107 -0.054338284 0.041077193 0.33566743 0.09366221 0.04883059 -0.00998546
-0.06816775 0.04961525 0.022820199 0.035115667 0.043578964 0.03324557 -0.029078854 -0.060010444
0.08445129 0.09716353 -0.02294098 0.12186242 0.05818345 0.096175395 -0.07215142 -0.15660772
00000000: 8435 95be 1e65 943c 6f1e 4ebd c667 073e
00000010: 16b4 a6bc b2c5 c0bd 5952 f7bd 1875 953d
00000020: 53a4 46bd cd84 3e3e 954c f93d 0df0 81bd
00000030: fd19 0b3c baa7 ffbd edf7 283d 73a6 0d3e
00000040: 30fb 083d 15b6 123e 0be9 39be c2ba 113d
00000050: edf2 5f3e 717b e2bd 7ae1 033d f7f2 edbd
00000060: a69b fbbb 7aa9 b83c 4ecc 033e 4d79 a93d
00000070: 08f8 3a3e 1098 ffbc d0d1 873e 0895 c93d
00000080: c81a 083e 2641 9e3d eab0 b33d 83d9 1ebe
00000090: b9fa 8ebd f41f 893e e44e 363e b10c 0a3d
000000a0: a422 88bd 52f5 cfbd aa69 763c 8d1f 863b
000000b0: afa1 dc3d b336 a2bd 4998 8c3d 8a28 583e
000000c0: 7f8b 71bc 94b8 9e3c 4784 643d e7f4 1b3e
000000d0: c28f 68bd ae55 3f3e 1d3a 29be 5ff8 793e
000000e0: 9514 bd3d d103 96bd 5054 e0bd 2df2 ba3c
000000f0: 1317 78bd bf4b 63bd 0871 24be 19f7 2b3e
00000100: 8ef5 86bd 8fcd cbbd 4851 973c f0b9 293d
00000110: 7632 88be d629 d43d ac92 2b3d a09d a3bd
00000120: 7657 a2bd 168a 34bd fbe5 513e 0cb6 f1bc
00000130: ef09 4b3e 7756 423d 36d5 3b3e 53b5 b8bc
00000140: a8da 093d a9b5 47be f016 fbbd 565f c4bc
00000150: bb32 96be 397a 133d bcf3 563d 5374 e0bd
00000160: 62f9 a6be 9f26 2fbd 58d6 56be a7cf 7dbe
00000170: 1aba bd3e ad49 88bd ae77 933e 76d0 ae3d
00000180: 6fc0 6abd 1f94 073e 82a5 21bb 94ff fcbb
00000190: 2397 09be 7a30 05be 1ade f0bd 9f53 83bc
000001a0: a850 13bd 90d3 c3bd 3a58 653d 9230 47bd
000001b0: cf57 7e3b a141 873d ddd9 2abe 6375 333d
000001c0: ca6d e73d db62 e63c 0e37 c93a 272c 00be
000001d0: 35e4 78ba 1279 c03e 7aa7 e73d 7cc5 413d
000001e0: 9ea4 e2bd 7928 1cbe fa7b bbbd 2795 4abd
000001f0: ef04 d0bd 67ba 103e 9d81 13be da9a a0bd
00000200: 77a9 893e 70a7 533e b38e 133e e8cc a1bd
00000210: 0ed1 2bbe bf87 af3d e04e 2ebb 7292 253e
00000220: 41c5 673d 8770 3d3e 121c 46bb 07d8 793e
00000230: 9c13 123c 3e97 35bd 016c 33be 6afe c03d
00000240: c1d1 4bbd b9a9 d4bd 3a1d 853d d500 bbbd
00000250: 2374 273e 34e9 7abd 2518 bdbc 034e b4bd
00000260: 4ca4 dfbe e96d 56be fe12 9abd 91aa b23d
00000270: d528 a6bd c126 003e 77fe bcbd c85b d0bd
00000280: d53e 0abe aafa 483d 8a58 353d b17c 52be
00000290: cdc4 583e 7b66 2bbe cc6c 793c 158b 933d
000002a0: f18e 063e 89f3 c43d 861c dfbd 558f 483e
000002b0: cf4c 023e 27ed 0cbd 9630 33be 0361 6d3e
000002c0: 0bed 03be ab0c f5bc 5701 803b 58fe 6dbd
000002d0: 7427 35bd d35b 1d3d 8dfc 143d 937b 0c3d
000002e0: 5e04 183e 1c0a 8c3e 9e35 78bd 5dd0 ccbd
000002f0: b299 083d 1425 a43d 2b1e b83d dd32 613e
00000300: e09c ea3c 22ba a3bd a4b9 673e 442c dabc
00000310: d752 82bc b6c8 bf3d 238b cfbc bccf 843c
00000320: 977a a8bd c573 babd ae68 8c3d 012d 963d
00000330: 3769 0bbe 3fb9 1b3e 6d5c 1b3e e33f 093e
00000340: b917 09bd 3852 1fbe 122e 3ebd 4d22 e83c
00000350: 9154 7ebe 6b72 fc3c 644c d83c f18c a03d
00000360: e4c9 eabd 0a10 98bd f0aa 663c 16a1 3f3c
00000370: e794 a73d c554 87bd 4736 32be 1ebb 91bd
00000380: 944b 9cbd c492 733d 7a9d cd3c abe9 acbd
00000390: 89ca 9bbd 74a8 1cbd 9a22 033e 928c 863e
000003a0: e718 2ebe 916a eabd d291 5ebd 8f40 283d
000003b0: 9adc ab3e f9d1 bf3d 9602 483d 0e9a 23bc
000003c0: 899b 8bbd 5c39 4b3d 6df1 ba3c 72d5 0f3d
000003d0: db7f 323d 822c 083d c736 eebc 83cd 75bd
000003e0: ccf4 ac3d acfd c63d b9ee bbbc 0193 f93d
000003f0: c551 6e3d 9bf7 c43d 20c4 93bd c65d 20be

fc3.bias f4 [10]
-0.18825923 -0.55912 0.098696105 0.2235109 0.55804414 -0.12025356 0.22811335 -0.2452002
0.37689686 -0.26459292
00000000: 07c7 40be 7d22 0fbf 2f21 ca3d 0be0 643e
00000010: fbdb 0e3f 8047 f6bd 8c96 693e c315 7bbe
00000020: a0f8 c03e b978 87be
