tutorials/1.4 - classifier/cifar_net.pth (torch, 251604 bytes, 10 tensors)

conv1.weight f4 [6, 3, 5, 5]
-0.1440907 -0.07080072 -0.050162274 -0.13990736 -0.21495788 -0.037305612 0.03949189 -0.04300258
-0.048690856 -0.10074191 -0.059124235 0.118149996 0.09493647 0.055402055 -0.097751394 0.14518064
0.16603816 0.22340745 0.08886052 0.04411846 0.20388553 0.33631465 0.24609177 0.2033681
0.10513872 0.01323586 0.020655131 -0.12905177 0.01517451 -0.06695841 -0.05075117 -0.012129121
-0.0054087113 -0.10282599 -0.09151927 -0.030340977 -0.09177582 0.013157811 -0.060357742 -0.22987825
-0.051624022 -0.067954645 -0.14284207 -0.10531924 -0.056620292 -0.24956213 -0.09230701 -0.09389134
-0.10496408 -0.10626228 0.05560706 0.20782635 0.30664688 0.24050432 0.19058776 0.18757951
0.19864993 0.2855334 0.111708365 0.045127645 -0.0009040284 0.27833968 0.08798421 0.14587711
0.07551642 -0.009137602 0.040961105 0.15557836 -0.060049724 -0.11352949 0.011576069 0.037652187
0.075573616 0.05225519 -0.0730329 -0.1952448 -0.14638 -0.14145881 -0.21971889 -0.0923552
-0.5140288 -0.70859635 -0.54498076 -0.4478497 -0.20514946 0.11260477 0.053199615 0.15191175
0.12355356 -0.086398296 0.22499497 0.38015085 0.565501 0.4146071 0.18342276 -0.03818649
0.034742754 0.0023286417 -0.0436033 -0.0012728432 0.1694439 0.14399292 -0.040632922 -0.012193929
0.23721948 -0.21678819 -0.42875916 -0.32733408 -0.108214825 0.07331949 0.0984957 0.19413467
0.14805643 0.2443039 0.1520035 0.2901977 0.44839174 0.4592154 0.36923435 0.12290647
-0.06532128 -0.08297178 0.021984924 -0.10897308 -0.08695763 0.24173303 0.02721751 0.102071546
0.03141387 0.21888545 -0.31878895 -0.41980776 -0.26651973 -0.25052607 -0.011743203 0.037967287
0.1893954 0.089557834 0.1773028 -0.01829863 0.1673125 0.3185401 0.33700025 0.1616753
-0.13072017 -0.13235387 -0.20764488 -0.2695439 -0.26631415 -0.18228462 0.40806666 0.011866299
-0.18922812 0.05695247 0.1328205 0.027226591 -0.27301854 0.0009986061 0.1263978 0.1864617
-0.28469482 -0.24236183 0.24086246 0.13125995 0.050571904 -0.27137315 -0.046136424 0.35649657
0.24500525 -0.19087905 -0.18510178 -0.07952434 0.20452006 0.15172602 -0.19591783 -0.0018442841
-0.24922258 -0.31584102 -0.22165552 0.011700359 -0.07496517 -0.3314275 -0.05505936 0.19684456
0.016291074 -0.30689794 -0.30217665 0.28616187 0.11734041 -0.06145378 -0.38494036 -0.23897143
0.34747118 0.20571609 -0.16288254 -0.102018476 -0.036034897 0.2667383 0.13279817 -0.10821402
0.023370935 -0.067698345 -0.11234527 -0.08554369 0.12516154 -0.12797773 -0.28485972 0.10455079
0.15631433 0.08800171 -0.22389476 -0.25781724 0.3495049 0.19514991 0.028200893 -0.38350686
-0.17531514 0.42983726 0.27292177 0.0061504347 -0.13952225 0.03641912 0.3726548 0.17872116
-0.040724013 -0.035950527 -0.105690934 0.040104438 -0.19764404 -0.10612779 -0.04457943 0.041431427
0.049071692 -0.09576131 -0.1574747 -0.08391279 0.16014667 0.0264223 -0.15726846 -0.11324305
-0.0050484627 0.16055484 0.094645165 -0.32841334 -0.20623633 0.05145918 -0.0059097745 -0.0070876707
-0.08152087 0.026510587 0.0641946 0.1925847 0.24883568 0.054521043 -0.14953469 0.20318921
00000000: 838c 13be f8ff 90bd f576 4dbd e043 0fbe
00000010: eb1d 5cbe c5cd 18bd 40c2 213d 7923 30bd
00000020: 1070 47bd c651 cebd 412c 72bd a0f8 f13d
00000030: 0d6e c23d 44ed 623d e231 c8bd 3caa 143e
00000040: e805 2a3e ecc4 643e 81fc b53d 8fb5 343d
00000050: 5ec7 503e 6f31 ac3e 7bff 7b3e ba3f 503e
00000060: f852 d73d 38db 583c f334 a93c 2626 04be
00000070: 829e 783c 7e21 89bd 75e0 4fbd 39b9 46bc
00000080: 8f3b b1bb 6f96 d2bd 746e bbbd a48d f8bc
00000090: f6f4 bbbd dc93 573c ae39 77bd 3465 6bbe
000000a0: b673 53bd ce2b 8bbd 3145 12be 9db1 d7bd
000000b0: aeea 67bd 378d 7fbe 750b bdbd 1a4a c0bd
000000c0: 68f7 d6bd 0aa0 d9bd 3bc4 633d 6ed0 543e
000000d0: d200 9d3e c446 763e 7029 433e d814 403e
000000e0: e36a 4b3e 6f31 923e 5bc7 e43d c4d7 383d
000000f0: 52fc 6cba 8a82 8e3e 1131 b43d cf60 153e
00000100: 5aa8 9a3d e1b5 15bc d5c6 273d ef4f 1f3e
00000110: b3f6 75bd 2682 e8bd 8da9 3d3c 2e39 1a3d
00000120: 57c6 9a3d 8a09 563d 4692 95bd 41ee 47be
00000130: a4e4 15be 94da 10be fdfd 60be b924 bdbd
00000140: 6497 03bf 9266 35bf dc83 0bbf 8e4c e5be
00000150: b312 52be 549d e63d d7e7 593d c18e 1b3e
00000160: a609 fd3d 97f1 b0bd 1565 663e 22a3 c23e
00000170: acc4 103f 6247 d43e 2dd3 3b3e 7069 1cbd
00000180: 6b4e 0e3d 209c 183b 6099 32bd 88d5 a6ba
00000190: b482 2d3e e172 133e b56e 26bd 0cc9 47bc
000001a0: aae9 723e b9fd 5dbe 5286 dbbe 5598 a7be
000001b0: bc9f ddbd 8728 963d 1db8 c93d 3dcb 463e
000001c0: 1b9c 173e cd2a 7a3e cea6 1b3e cb94 943e
000001d0: 9a93 e53e 481e eb3e 490c bd3e 63b6 fb3d
000001e0: 2ac7 85bd 1ced a9bd ba19 b43c 472d dfbd
000001f0: d816 b2bd dd88 773e 41f7 de3c e30a d13d
00000200: d5ab 003d 8223 603e 4e38 a3be 0bf1 d6be
00000210: 4675 88be f444 80be 9066 40bc 9683 1b3d
00000220: def0 413e 196a b73d dd8e 353e 02e7 95bc
00000230: f853 2b3e b017 a33e 4c8b ac3e 368e 253e
00000240: 82db 05be c687 07be dca0 54be a801 8abe
00000250: 545a 88be d2a8 3abe 1dee d03e de6a 423c
00000260: 04c5 41be fe46 693d 1902 083e 4d0a df3c
00000270: 16c9 8bbe a9e3 823a 6d6e 013e d1ef 3e3e
00000280: 85c3 91be b32d 78be a6a4 763e 0269 063e
00000290: 7c24 4f3d 6cf1 8abe 8cf9 3cbd b886 b63e
000002a0: a8e2 7a3e cc75 43be 528b 3dbe a8dd a2bd
000002b0: b56d 513e 115e 1b3e af9e 48be e8bb f1ba
000002c0: 3434 7fbe eab5 a1be aaf9 62be ddb2 3f3c
000002d0: 5787 99bd deb0 a9be ec85 61bd 9f91 493e
000002e0: dc74 853c ba21 9dbe e6b6 9abe cf83 923e
000002f0: 2b50 f03d f5b6 7bbd e716 c5be edb4 74be
00000300: bee7 b13e 3da7 523e aeca 26be 10ef d0bd
00000310: 5499 13bd ec91 883e 3efc 073e 509f ddbd
00000320: 6774 bf3c 6ea5 8abd 4715 e6bd 8831 afbd
00000330: 592a 003e 980c 03be 22d9 91be b91e d63d
00000340: dd10 203e 3e3a b43d ab44 65be 9f00 84be
00000350: 4ef2 b23e 61d5 473e 8f05 e73c 035b c4be
00000360: d085 33be a113 dc3e 67bc 8b3e 9689 c93b
00000370: ecde 0ebe 372c 153d 9ccc be3e ae02 373e
00000380: 39ce 26bd dc40 13bd 7d74 d8bd 8d44 243d
00000390: 3363 4abe 8759 d9bd ec98 36bd 00b4 293d
000003a0: 66ff 483d 811e c4bd 0c41 21be 78da abbd
000003b0: 7dfd 233e 9473 d83c fc0a 21be f9eb e7bd
000003c0: 936d a5bb 7d68 243e 53d5 c13d cb25 a8be
000003d0: 9e2f 53be dcc6 523d c8a6 c1bb b13f e8bb
000003e0: 6af4 a6bd bb2c d93c 7578 833d ec34 453e
000003f0: c8ce 7e3e 7551 5f3d 9f1f 19be d510 503e

conv1.bias f4 [6]
0.23429336 -0.1961264 -0.18689977 0.053080335 -0.6053837 0.1952453
00000000: 99ea 6f3e 5cd5 48be a762 3fbe c46a 593d
00000010: 6dfa 1abf 62ee 473e

conv2.weight f4 [16, 6, 5, 5]
-0.11012523 -0.15370323 -0.09022931 0.1639394 0.17736687 0.0053737382 -0.048571642 0.14049351
0.0933146 0.013737429 -0.069698974 0.0071414346 0.07700574 0.09992435 0.092487074 0.16396222
0.0891772 0.033699054 -0.054319076 -0.07202479 0.053224847 0.06970459 -0.09429388 -0.02375261
0.0363243 -0.18733165 0.14310415 0.273012 0.11726832 0.014392488 0.09078567 0.26767486
0.2277773 0.037377857 -0.025133738 0.14726153 0.024607055 -0.12552676 -0.13943455 -0.15523282
0.01407139 -0.100407 -0.26695284 -0.22857776 -0.12914501 -0.14087014 -0.11234685 -0.11486278
-0.04829747 -0.075316906 -0.08998394 0.080505006 0.31665638 0.096473455 -0.2053313 0.13662784
0.18472111 0.117665574 -0.1822008 -0.21042429 0.22114944 0.08359684 -0.04657169 -0.18591888
-0.12778574 0.09395423 -0.15077281 -0.09030738 0.04630967 -0.060912304 0.11402734 -0.038243283
0.11323741 0.060649768 -0.024745684 0.052294403 -0.18003479 -0.22413845 -0.106821306 -0.06713153
-0.20806539 -0.219985 -0.13372922 -0.07827868 -0.04481198 -0.15029635 -0.13497992 0.018503092
-0.02358033 -0.11541775 -0.08004738 0.0049459077 0.084651224 -0.0022974452 0.027014071 0.041626405
0.01705336 -0.018628608 0.09647289 0.0644138 -0.05609639 0.02171241 -0.10890653 -0.041318867
0.0020327072 -0.0009903074 -0.06922375 -0.03724812 -0.06577102 -0.03724907 -0.01334385 -0.04488566
-0.02451835 0.05770341 -0.07372855 -0.099048086 0.036616493 -0.0007325478 0.0071706343 0.10019607
0.024903616 -0.062207904 0.068759024 -0.089558 0.027033882 -0.007985436 0.06401223 0.11440402
0.1907646 0.18937461 -0.024860017 -0.079180814 -0.027911315 0.082494825 0.106734335 -0.070386305
0.010584818 0.09697276 -0.012295285 -0.053696394 -0.07901469 -0.019599222 -0.08507045 -0.04204085
-0.19556715 0.026087312 0.07808801 -0.041498486 -0.1425641 -0.052963063 -0.11309799 -0.020061353
0.04733011 0.07653708 0.15787612 -0.18224062 -0.045269836 0.016819065 0.084417515 0.07677071
-0.106870666 -0.086522385 0.04649155 0.09997914 0.21620525 -0.08909778 -0.106070474 0.034782335
0.03105049 0.24922848 0.055370145 0.045173205 0.13920122 0.22507526 0.258717 -0.17241582
-0.14830866 -0.0364805 -0.17166407 -0.1827199 -0.04305007 -0.08858046 -0.14895155 -0.12519424
-0.1719233 0.03929849 0.007375047 -0.11998091 -0.026739947 -0.12799066 0.021837588 -0.05099582
-0.061868586 0.11728651 -0.010298993 -0.019166319 0.17896716 0.17897736 0.12724817 -0.061380986
-0.04554311 -0.14201991 -0.22462663 -0.2673082 -0.0642042 -0.08770352 -0.021280518 -0.22934137
-0.07206437 -0.009488315 -0.075588144 -0.06260235 -0.096932024 0.01699593 0.040553283 -0.03917672
-0.07795127 0.07355448 0.14069523 0.043147676 0.009293111 0.124559425 0.3053851 0.17724404
-0.1133522 -0.12114826 -0.1472621 -0.06777475 -0.104569376 -0.13100529 -0.088225335 -0.039471652
0.04581961 -0.027999239 -0.17683065 0.03844361 0.046589497 -0.03350649 -0.09974879 -0.10973284
0.012040563 0.03729539 0.05036359 0.029201735 0.07022875 0.076666646 0.1084576 0.116214916
0.15146355 0.22593682 -0.19819848 -0.15475447 -0.19490646 -0.08362475 -0.20985553 -0.139141
00000000: 5689 e1bd 6164 1dbe 25ca b8bd bbdf 273e
00000010: a99f 353e 2f16 b03b 0ff3 46bd 88dd 0f3e
00000020: ba1b bf3d f412 613c 56be 8ebd b202 ea3b
00000030: 2fb5 9d3d 23a5 cc3d dd69 bd3d b6e5 273e
00000040: 89a2 b63d 0508 0a3d ae7d 5ebd bc81 93bd
00000050: 4c02 5a3d 48c1 8e3d 261d c1bd d594 c2bc
00000060: cac8 143d ded3 3fbe e589 123e 3bc8 8b3e
00000070: 5f2a f03d 78ce 6b3c d6ed b93d ae0c 893e
00000080: 743e 693e 8619 193d 45e5 cdbc bacb 163e
00000090: bc94 c93c 168a 00be eec7 0ebe 5af5 1ebe
000000a0: b08b 663c 2fa2 cdbd 0bae 88be 4a10 6abe
000000b0: 973e 04be 4340 10be 1b16 e6bd 2d3d ebbd
000000c0: 91d3 45bd c03f 9abd 8049 b8bd cfdf a43d
000000d0: c920 a23e e093 c53d 5e42 52be 2be8 0b3e
000000e0: 8827 3d3e a6fa f03d d992 3abe 7779 57be
000000f0: 0075 623e d234 ab3d f5c1 3ebd 8561 3ebe
00000100: 44da 02be 136b c03d 3064 1abe 13f3 b8bd
00000110: 35af 3d3d 2e7f 79bd 2b87 e93d fda4 1cbd
00000120: 04e9 e73d e46b 783d 76b7 cabc a832 563d
00000130: 0a5b 38be 8d84 65be 21c5 dabd 417c 89bd
00000140: 180f 55be bf43 61be 50f0 08be 9350 a0bd
00000150: c48c 37bd 49e7 19be 2d38 0abe cc93 973c
00000160: 892b c1bc 2460 ecbd e1ef a3bd 4811 a23b
00000170: 9f5d ad3d bc90 16bb 9d4c dd3c 7380 2a3d
00000180: 7db3 8b3c 069b 98bc 9493 c53d 62eb 833d
00000190: 54c5 65bd 39de b13c 630a dfbd f93d 29bd
000001a0: 2b37 053b 34cd 81ba 2ec5 8dbd 7c91 18bd
000001b0: f5b2 86bd 7b92 18bd 2aa0 5abc 07da 37bd
000001c0: b5da c8bc 695a 6c3d fefe 96bd b9d9 cabd
000001d0: 2dfb 153d 7308 40ba a4f7 ea3b 9933 cd3d
000001e0: ab02 cc3c b7cd 7ebd 88d1 8c3d 2f6a b7bd
000001f0: 2976 dd3c 59d5 02bc d818 833d a84c ea3d
00000200: cc57 433e 6beb 413e 3ca7 cbbc 8d29 a2bd
00000210: 45a6 e4bc 0cf3 a83d 8897 da3d b226 90bd
00000220: f26b 2d3c a899 c63d 2a72 49bc c0f0 5bbd
00000230: 74d2 a1bd 8c8e a0bc 6b39 aebd 0733 2cbd
00000240: c142 48be 0fb5 d53c 9bec 9f3d 51fa 29bd
00000250: 53fc 11be ccef 58bd eb9f e7bd b557 a4bc
00000260: 38dd 413d 79bf 9c3d 47aa 213e 499d 3abe
00000270: dd6c 39bd 23c8 893c 17e3 ac3d f639 9d3d
00000280: 02df dabd a632 b1bd ec6d 3e3d ddc1 cc3d
00000290: e964 5d3e e678 b6bd 7a3b d9bd ec77 0e3d
000002a0: 995d fe3c c035 7f3e cecb 623d 8a07 393d
000002b0: c48a 0e3e 217a 663e 8e76 843e c68d 30be
000002c0: 3ade 17be 946c 15bd b5c8 2fbe ed1a 3bbe
000002d0: 4555 30bd ac69 b5bd c186 18be eb32 00be
000002e0: a90c 30be 74f7 203d 61aa f13b 8db8 f5bd
000002f0: bc0d dbbc fc0f 03be bee4 b23c fee0 50bd
00000300: ea69 7dbd e933 f03d 1cbd 28bc af02 9dbc
00000310: 2b43 373e d745 373e 584d 023e a16a 7bbd
00000320: 6a8b 3abd ab6d 11be 8604 66be 9fdc 88be
00000330: 7e7d 83bd e79d b3bd 7b54 aebc 77d8 6abe
00000340: 7c96 93bd e174 1bbc f5cd 9abd a935 80bd
00000350: 4c84 c6bd 0c3b 8b3c 331b 263d c577 20bd
00000360: eaa4 9fbd bba3 963d 6912 103e 9ebb 303d
00000370: 2242 183c 0319 ff3d 705b 9c3e 767f 353e
00000380: 3325 e8bd 941c f8bd e0cb 16be 7dcd 8abd
00000390: 7828 d6bd 4026 06be 7caf b4bd 07ad 21bd
000003a0: 58ad 3b3d a95e e5bc 1813 35be 0c77 1d3d
000003b0: a1d4 3e3d 1a3e 09bd 1849 ccbd 9cbb e0bd
000003c0: c845 453c 0dc3 183d 0d4a 4e3d 7a38 ef3c
000003d0: 17d4 8f3d 6703 9d3d 051f de3d 1602 ee3d
000003e0: 4319 1b3e fb5b 673e 8bf4 4abe f577 1ebe
000003f0: 8f95 47be 7443 abbd 5ee4 56be fa7a 0ebe

conv2.bias f4 [16]
-0.14324878 0.5483956 0.11054431 -0.169526 0.09500104 -0.5765358 0.09272226 0.7358623
0.018925084 0.31548423 -0.0266217 -0.25643072 0.7265966 0.5440898 -0.2952207 -0.18525878
00000000: cfaf 12be a763 0c3f 0e65 e23d 3998 2dbe
00000010: e88f c23d da97 13bf 2be5 bd3d 7961 3c3f
00000020: c708 9b3c 2687 a13e c015 dabc e34a 83be
00000030: 3c02 3a3f 7849 0b3f 2b27 97be 7ab4 3dbe

fc1.weight f4 [120, 400]
-0.042195525 -0.08907323 -0.011085619 0.024989342 0.07567865 -0.058991622 -0.04874424 -0.023142723
-0.014445961 0.05033002 -0.0072291177 -0.046947427 -0.025676511 -0.07930194 0.018960448 -0.009748853
-0.0061856606 -0.08659866 0.028618602 -0.027022721 0.06431509 -0.026245361 0.07608141 -0.04924693
-0.106854275 0.064506516 0.057170693 0.080345616 0.0750821 0.055906232 0.028775694 -0.05691212
-0.03478379 -0.018664476 -0.0037306782 -0.06384328 -0.016365642 -0.06848395 -0.050240442 -0.01218637
-0.041162003 -0.08519737 -0.013579639 0.0038824372 -0.030688254 -0.030770477 0.014827475 -0.008176674
-0.00975992 -0.0132308835 0.075445294 -0.027366962 0.035882246 0.050318506 0.035483714 0.06331615
-0.008417471 0.047313906 0.046916746 0.035236336 -0.013939463 0.036105487 0.049666822 0.03424886
0.0037997968 -0.052502148 0.012303189 0.019581925 0.051971763 -0.0018206061 0.0069900346 0.021215307
0.01689075 -0.027101904 -0.016725196 0.06568816 -0.038085606 0.044980735 0.038356617 0.06281094
-0.013187942 -0.007330086 0.018338608 0.0041730925 -0.03489544 -0.025061464 -0.058552973 -0.023204643
0.040589467 -0.0021624363 0.0026712767 0.0075573865 -0.025117183 0.04339188 -0.04334411 0.06989052
0.022558894 0.0480243 0.034641705 -0.022481028 0.023514636 0.01379058 0.015996601 -0.045728087
-0.015204819 -0.02151611 -0.057498317 -0.046938054 -0.060634475 -0.0777863 -0.01701185 -0.07833359
-0.06950443 -0.07870772 -0.00086312846 -0.01372438 -0.070160486 -0.010113958 0.01108724 -0.00304068
0.03561702 -0.030164532 -0.04552407 0.009601276 -0.027518066 0.05683407 -0.029603751 -0.028075729
0.00829544 0.049527664 -0.02450622 0.012190054 0.02573851 -0.053581595 0.020928549 0.040397156
-0.028300256 0.046563976 0.04136729 0.047942147 -0.03010948 -0.03867574 -0.010574388 -0.021447014
0.0153358765 -0.043125026 -0.027104363 -0.0706502 -0.02210011 0.01502883 0.013432014 -0.018746084
-0.054101072 -0.026126107 0.052580964 0.043400053 -0.034374673 0.024683619 0.027045554 0.0495062
0.050553396 0.08074159 0.073020846 0.066138975 0.054352265 0.06317356 0.041734524 0.027870076
0.011795329 -0.012505927 -0.043377362 -0.038646206 0.015756505 0.06395818 0.075942576 -0.028267778
-0.04691848 0.02577636 -0.022821764 -0.028002348 0.034395564 0.0020509867 -0.052243166 -0.03428207
-0.0031239735 0.030985713 -0.070716836 -0.09501977 -0.09602463 -0.06222535 0.043574624 -0.03297816
-0.07733233 -0.05005013 -0.054686144 0.030124277 -0.03513721 0.013660686 -0.018443547 -0.02538467
0.003281557 -0.076362364 -0.06258762 -0.06588011 0.04836164 -0.006813981 -0.018987948 -0.017587736
0.022086052 -0.008774688 0.012078768 0.053449288 0.046482373 -0.02016397 -0.020499492 -0.048534535
-0.041662727 0.02103957 0.038785923 0.073920295 0.120849654 -0.016825754 -0.0689239 -0.018452907
-0.0049884547 0.044979602 -0.021682104 -0.08833203 0.0033709542 0.1329648 -0.04180832 -0.039591663
-0.11128539 -0.00066056044 0.035812173 0.0263882 -0.009770954 -0.05765085 -0.037691265 -0.067353636
0.045681592 -0.010718131 0.0020500433 -0.0054201027 -0.030624392 0.020879293 0.018283237 0.09397203
0.0523012 0.021610297 -0.036408514 0.0020331268 -0.03362162 -0.02413897 -0.09034464 -0.046812717
00000000: 37d5 2cbd 076c b6bd 75a0 35bc 73b6 cc3c
00000010: 68fd 9a3d 33a1 71bd 0aa8 47bd cf95 bdbc
00000020: c1ae 6cbc da26 4e3d 3ce2 ecbb f24b 40bd
00000030: 8c57 d2bc 0e69 a2bd f152 9b3c a7b9 1fbc
00000040: 15b1 cabb a35a b1bd 8f71 ea3c c15e ddbc
00000050: a1b7 833d 8300 d7bc 92d0 9b3d 26b7 49bd
00000060: 6ad6 dabd fe1b 843d d12b 6a3d 3e8c a43d
00000070: a5c4 993d effd 643d 01bb eb3c af1c 69bd
00000080: 7379 0ebd 3ee6 98bc 657e 74bb 44c0 82bd
00000090: 3d11 86bc 5041 8cbd ecc8 4dbd 57a9 47bc
000000a0: 7d99 28bd f57b aebd 227d 5ebc 7d70 7e3b
000000b0: ef65 fbbc 5e12 fcbc f0ee 723c 75f7 05bc
000000c0: 12e8 1fbc 59c6 58bc 1083 9a3d ae30 e0bc
000000d0: 43f9 123d c71a 4e3d 5f57 113d e6ab 813d
000000e0: 6fe9 09bc 3acc 413d c62b 403d fa53 103d
000000f0: 5862 64bc 59e3 133d 706f 4b3d 8848 0c3d
00000100: 0306 793b 7e0c 57bd 5193 493c 466a a03c
00000110: 58e0 543d 67a1 eeba a90c e53b b9cb ad3c
00000120: 785e 8a3c d004 debc 4703 89bc 8487 863d
00000130: a7ff 1bbd b83d 383d d41b 1d3d 06a3 803d
00000140: 3d12 58bc 3831 f0bb d93a 963c 70be 883b
00000150: 85ee 0ebd b34d cdbc 3ed5 6fbd aa17 bebc
00000160: 2441 263d a9b7 0dbb 9610 2f3b f4a3 f73b
00000170: 8dc2 cdbc afbb 313d 9889 31bd c322 8f3d
00000180: 6ecd b83c 21b5 443d 76e4 0d3d 222a b8bc
00000190: c4a1 c03c e3f1 613c 4e0b 833c 604d 3bbd
000001a0: a21d 79bc 8e42 b0bc 5b83 6bbd 1e42 40bd
000001b0: db5b 78bd 6c4e 9fbd 6f5c 8bbc 5c6d a0bd
000001c0: 5758 8ebd 8331 a1bd 9243 62ba 39dc 60bc
000001d0: 4db0 8fbd 04b5 25bc 41a7 353c 2546 47bb
000001e0: 27e3 113d 9c1b f7bc 7277 3abd ac4e 1d3c
000001f0: 916d e1bc d7ca 683d 9183 f2bc 12ff e5bc
00000200: 99e9 073c 85dd 4a3d 45c1 c8bc cbb8 473c
00000210: 91d9 d23c 6078 5bbd 5972 ab3c 7d77 253d
00000220: f0d5 e7bc deb9 3e3d bf70 293d fc5e 443d
00000230: 28a8 f6bc 746a 1ebd 3340 2dbc a6b1 afbc
00000240: 5443 7b3c dea3 30bd f809 debc 0db1 90bd
00000250: 4a0b b5bc 7b3b 763c f311 5c3c 6391 99bc
00000260: 1699 5dbd 6b06 d6bc 235f 573d 41c4 313d
00000270: 75cc 0cbd 4d35 ca3c a38e dd3c 03c7 4a3d
00000280: 1411 4f3d d95b a53d f48b 953d df73 873d
00000290: 7ba0 5e3d 2461 813d d2f1 2a3d c94f e43c
000002a0: 3241 413c a9e5 4cbc 76ac 31bd 7c4b 1ebd
000002b0: c913 813c 82fc 823d c887 9b3d d491 e7bc
000002c0: 982d 40bd f228 d33c b5f4 babc 2e65 e5bc
000002d0: 5de2 0c3d d969 063b eefc 55bd 5b6b 0cbd
000002e0: 94bb 4cbb c0d5 fd3c fdd3 90bd ba99 c2bd
000002f0: 90a8 c4bd 02e0 7ebd 4e7b 323d 1b14 07bd
00000300: 6a60 9ebd 5d01 4dbd 94fe 5fbd 30c7 f63c
00000310: 09ec 0fbd 12d1 5f3c ec16 97bc 83f3 cfbc
00000320: 640f 573b df63 9cbd f02d 80bd 27ec 86bd
00000330: db16 463d d147 dfbb 9d8c 9bbc 2814 90bc
00000340: cfed b43c b5c3 0fbc 06e6 453c a4ed 5a3d
00000350: 4d64 3e3d e92e a5bc 8dee a7bc 26cc 46bd
00000360: 89a6 2abd 2d5b ac3c fddd 1e3d 8663 973d
00000370: 0680 f73d 2ad6 89bc f927 8dbd 8d2a 97bc
00000380: 3176 a3bb 883c 383d ab9e b1bc 6ce7 b4bd
00000390: 3aeb 5c3b ed27 083e 333f 2bbd de2a 22bd
000003a0: 98e9 e3bd 7629 2dba c9af 123d 112c d83c
000003b0: 5a16 20bc 4c23 6cbd 2862 1abd b4f0 89bd
000003c0: 9f1c 3b3d 1a9b 2fbc 055a 063b 1e9b b1bb
000003d0: 01e0 fabc 0d0b ab3c bac6 953c 6874 c03d
000003e0: c839 563d 1408 b13c 1821 15bd 353e 053b
000003f0: d3b6 09bd 17bf c5bc 9c06 b9bd b1be 3fbd

fc1.bias f4 [120]
0.060145833 0.09821715 -0.039319582 0.15154134 0.120669074 0.080715895 0.017984914 -0.07670144
-0.007659395 0.02093919 -0.013981681 0.28823316 -0.14671446 0.034247678 0.096085474 -0.031683825
0.067522295 0.0074342596 0.05656092 0.03528065 0.10977839 0.045026302 0.010439977 0.13670686
0.108419955 -0.022860324 -0.02051436 0.14750968 0.12591624 -0.028628418 0.03724513 0.12860678
0.022327745 0.124311686 -0.036971577 0.07146546 0.028101102 0.009854389 -0.02239975 0.004688547
-0.071690924 0.11155191 -0.0452662 0.014504421 0.07609189 -0.12094344 0.105377145 0.07387858
0.19065697 0.044688106 -0.09039072 -0.0032417772 0.19637716 0.049618438 -0.065905035 0.02327675
-0.014807758 0.06359831 -0.043283835 0.047862645 -0.0924233 -0.004152102 -0.071149915 -0.008204532
0.02285349 0.18384291 -0.072227545 -0.08768492 0.03980796 -0.10914678 -0.0193278 -0.022218904
-0.04399824 0.14321914 0.103158325 0.06795017 0.017582165 0.0016850922 0.024288576 -0.040174454
-0.0029475796 -0.05787565 -0.0058189235 0.21256867 -0.026207075 0.10677237 0.0021242914 -0.12307067
0.16317037 -0.0155545315 0.12226076 0.13260244 0.04803801 0.10329509 -0.049632642 0.076863125
-0.014281835 -0.090973474 -0.02297406 0.014177151 0.00023040033 0.03986409 0.048621405 -0.013907588
0.067648984 0.12404756 0.07504076 -0.022905502 0.023959497 -0.116123885 -0.10796507 -0.18725821
0.14733298 -0.0086865565 0.08013731 -0.029818635 0.039751433 -0.018660758 -0.0023540955 0.08048673
00000000: 7a5b 763d 1326 c93d 920d 21bd a72d 1b3e
00000010: 5921 f73d 604e a53d 1955 933c a515 9dbd
00000020: aafb fabb aa88 ab3c 6c13 65bc 4c93 933e
00000030: 513c 16be 4b47 0c3d 76c8 c43d e6c6 01bd
00000040: 2149 8a3d 179b f33b 6cac 673d 7182 103d
00000050: 7ed3 e03d 806d 383d 700c 2b3c e2fc 0b3e
00000060: 480b de3d 9345 bbbc bb0d a8bc c70c 173e
00000070: 30f0 003e 2586 eabc 598e 183d 7fb1 033e
00000080: ade8 b63c 2097 fe3d 826f 17bd 7c5c 923d
00000090: 4834 e63c 4e74 213c ae7f b7bc 62a2 993b
000000a0: b1d2 92bd 5475 e43d 0d69 39bd f3a3 6d3c
000000b0: 11d6 9b3d 32b1 f7bd f9cf d73d a74d 973d
000000c0: 953b 433e e00a 373d c51e b9bd ff73 54bb
000000d0: 1817 493e b43c 4b3d 38f9 86bd e2ae be3c
000000e0: 3d9c 72bc d53f 823d 644a 31bd 9f0b 443d
000000f0: 6d48 bdbd 5b0e 88bb 0cb7 91bd 4d6c 06bc
00000100: 3e37 bb3c 5141 3c3e 09ec 93bd 2794 b3bd
00000110: ac0d 233d 5988 dfbd 5655 9ebc 6b04 b6bc
00000120: 8037 34bd 0aa8 123e ac44 d33d 7529 8b3d
00000130: 7908 903c 50de dc3a d6f8 c63c f88d 24bd
00000140: 2e2c 41bb 040f 6dbd abac bebb 9aab 593e
00000150: 38b0 d6bc 79ab da3d b237 0b3b 7a0c fcbd
00000160: 2216 273e 6fd8 7ebc d963 fa3d efc8 073e
00000170: 81c3 443d 608c d33d 994b 4bbd 6a6a 9d3d
00000180: 5cfe 69bc 4d50 babd 1934 bcbc 4847 683c
00000190: 9e97 7139 8748 233d 3d27 473d a7dc 63bc
000001a0: 8d8b 8a3d a60c fe3d f8ae 993d 52a4 bbbc
000001b0: b546 c43c 5cd2 edbd ca1c ddbd 9ec0 3fbe
000001c0: 75de 163e 0f52 0ebc 081f a43d 3646 f4bc
000001d0: 66d2 223d 72de 98bc 2b47 1abb 3ad6 a43d

fc2.weight f4 [84, 120]
-0.071618825 -0.061246168 0.004707092 0.12347736 -0.0369497 -0.082190566 -0.006076641 -0.092480905
0.036286686 0.07285453 -0.055172995 0.098142624 0.04017464 0.022974731 -0.032341138 -0.020963758
-0.023727132 0.07834498 0.014287667 0.07417094 0.04401067 0.008227216 0.013243145 0.067061365
-0.09139903 0.021182489 0.06242295 0.042879105 -0.0113732135 -0.0996868 -0.09271927 0.05107223
-0.07571528 0.07831598 -0.013753484 -0.0069994256 0.024242947 0.05012734 -0.13989635 0.020972006
0.055884838 0.0306285 -0.0525188 -0.09283476 0.12261122 -0.1093563 -0.08166635 0.0546864
0.13769701 -0.13579567 -0.057176597 -0.06782862 -0.0037625837 0.033124335 0.034759697 0.016052943
-0.06563819 0.090901256 -0.062387094 0.03611666 0.020046838 0.07447762 -0.075928 -0.047161713
0.07335831 0.08415206 0.0014725886 -0.01652532 -0.10162568 -0.10529164 0.0395552 0.06499687
-0.011740769 -0.0030863904 -0.037816986 -0.055323295 -0.075481415 -0.030925428 -0.075879626 -0.06640518
-0.016361877 -0.06387548 0.03291827 0.10484491 -0.05608974 0.043605678 0.011455351 -0.045414656
0.05518993 -0.05847371 0.114705786 0.10578716 -0.1656588 -0.11836318 -0.08349545 -0.033254616
0.042392727 -0.07747626 -0.021316195 0.01193798 -0.093635 0.09587483 -0.047079716 0.14721687
0.054553043 0.02493453 -0.02665884 -0.046078585 -0.06546561 -0.16249014 -0.044651154 -0.10054603
0.04516631 -0.06601543 0.063649476 -0.029283145 -0.043484412 -0.08107317 0.07405547 0.10083277
0.06558131 -0.08055617 0.08061445 0.05258877 0.047351997 -0.1408759 0.05530812 -0.14335606
0.025660135 -0.232798 -0.03025983 0.1467439 -0.032703154 0.0887145 -0.12351476 -0.01845041
0.0014815036 -0.10004349 0.12103761 -0.061780624 -0.102178775 0.053654544 0.14329657 0.02394829
0.01837368 0.011234632 0.06550866 0.063474454 -0.1530962 -0.061331596 0.024895722 -0.15986861
-0.13789849 -0.085718706 0.066324145 -0.054970987 -0.01877503 0.10051962 0.019000141 0.015083749
-0.038731743 0.2544282 0.12099821 0.06482382 -0.038924176 0.08862097 0.04150825 0.071336836
0.030850137 0.045842342 -0.046647165 -0.07689944 -0.022609832 0.04673002 -0.08402599 0.080107726
0.07848132 -0.036588073 -0.05951902 -0.03360306 -0.0050716624 0.054687377 0.012305811 0.09085735
0.082594484 -0.04385945 -0.102280974 0.08503449 -0.015997605 0.00048199567 0.0423465 0.018770775
-0.017924022 -0.06366085 0.06946053 -0.0017876326 0.049728326 -0.09157517 -0.064785995 0.032626294
-0.20665112 0.023687057 -0.07459282 -0.05177482 0.004395077 -0.013084371 0.054344438 -0.011352874
-0.06577104 0.086524144 0.08061738 0.11060656 -0.08117508 -0.10536983 0.09012719 -0.12629986
0.03958905 0.010276121 -0.055309445 -0.121064715 -0.09918315 0.05322446 0.04400242 -0.08508228
-0.078003064 -0.07870987 -0.0015491152 0.021350818 0.022626908 -0.0769502 -0.18778282 0.04155721
0.09057399 0.040343337 -0.12674044 0.013483416 -0.11218749 -0.09098707 -0.06804344 0.054810893
-0.04235293 -0.08859702 0.048528474 -0.055352103 0.006498998 -0.1361422 0.070765585 -0.04493293
-0.06717564 -0.07647884 0.0905948 -0.022075485 0.0020939573 0.011889982 -0.056826282 -0.011149556
00000000: e4ac 92bd 43dd 7abd f33d 9a3b b3e1 fc3d
00000010: 9258 17bd 8753 a8bd 8f1e c7bb a166 bdbd
00000020: 59a1 143d c134 953d 14fd 61bd 00ff c83d
00000030: 2a8e 243d 8135 bc3c 2478 04bd 30bc abbc
00000040: 675f c2bc 5573 a03d d216 6a3c efe6 973d
00000050: 8844 343d 72cb 063c c7f9 583c 7857 893d
00000060: 6a2f bbbd e686 ad3c 35af 7f3d 00a2 2f3d
00000070: b756 3abc 9828 ccbd 9ae3 bdbd 1d31 513d
00000080: 9d10 9bbd 2164 a03d 4b56 61bc 705b e5bb
00000090: 2599 c63c 5352 4d3d fd40 0fbe 7ccd ab3c
000000a0: 80e7 643d 9fe8 fa3c f41d 57bd 2720 bebd
000000b0: 971b fb3d 32f6 dfbd b040 a7bd d9fe 5f3d
000000c0: 7200 0d3e 050e 0bbe 0232 6abd bbe9 8abd
000000d0: ae95 76bb 62ad 073d 2f60 0e3d 7681 833c
000000e0: 516d 86bd 702a ba3d 9c89 7fbd 10ef 133d
000000f0: 4439 a43c b987 983d 2480 9bbd a42c 41bd
00000100: e23c 963d ea57 ac3d e003 c13a 1c60 87bc
00000110: 2021 d0bd 25a3 d7bd a204 223d 141d 853d
00000120: 5b5c 40bc 0a45 4abb fce5 1abd ae9a 62bd
00000130: 0096 9abd 5357 fdbc c766 9bbd 70ff 87bd
00000140: 5809 86bc 26d1 82bd 4fd5 063d eeb8 d63d
00000150: 5bbe 65bd de9b 323d 39af 3b3c b804 3abd
00000160: d60e 623d 2182 6fbd deea ea3d f0a6 d83d
00000170: 76a2 29be 6568 f2bd aaff aabd fe35 08bd
00000180: ffa3 2d3d e0ab 9ebd 4d9f aebc 8497 433c
00000190: b5c3 bfbd 065a c43d a9d6 40bd 05c0 163e
000001a0: 0373 5f3d 8043 cc3c a463 dabc e6bc 3cbd
000001b0: d512 86bd d163 26be 21e4 36bd 14eb cdbd
000001c0: 4f00 393d 1933 87bd a85a 823d 35e3 efbc
000001d0: b61c 32bd b109 a6bd 65aa 973d 6981 ce3d
000001e0: 7e4f 863d a2fa a4bd 3019 a53d 5267 573d
000001f0: 2bf4 413d c641 10be c48a 623d eecb 12be
00000200: 3435 d23c 9962 6ebe 77e3 f7bc 0844 163e
00000210: bef3 05bd f3af b53d 4ef5 fcbd 5025 97bc
00000220: 032f c23a 9ae3 ccbd 91e2 f73d ae0d 7dbd
00000230: 1b43 d1bd dec4 5b3d 56bc 123e 342f c43c
00000240: 6684 963c 7611 383c 6829 863d e5fe 813d
00000250: 40c5 1cbe d736 7bbd 1df2 cb3c 99b4 23be
00000260: 4335 0dbe 4a8d afbd f4d4 873d 4229 61bd
00000270: 17ce 99bc 3bdd cd3d 2fa6 9b3c d421 773c
00000280: 2da5 1ebd 6a44 823e e9cd f73d 5ac2 843d
00000290: f56e 1fbd e97e b53d 8e04 2a3d 0c19 923d
000002a0: 6db9 fc3c 2ec5 3b3d 1911 3fbd 747d 9dbd
000002b0: 4138 b9bc fa67 3f3d d115 acbd 850f a43d
000002c0: d0ba a03d 60dd 15bd 37ca 73bd 5da3 09bd
000002d0: 3030 a6bb dfff 5f3d 509e 493c 6b13 ba3d
000002e0: 4c27 a93d f7a5 33bd b078 d1bd 9026 ae3d
000002f0: 690d 83bc 5db4 fc39 8673 2d3d 2bc5 993c
00000300: 66d5 92bc 9f60 82bd 5341 8e3d ff4e eaba
00000310: eeaf 4b3d c38b bbbd 85ae 84bd 26a3 053d
00000320: 5a9c 53be 5c0b c23c 1fc4 98bd d511 54bd
00000330: 9404 903b d45f 56bc 4698 5e3d 6801 3abc
00000340: f8b2 86bd 9233 b13d ba1a a53d b185 e23d
00000350: 1f3f a6bd 23cc d7bd 9b94 b83d c054 01be
00000360: 2128 223d 2d5d 283c 288c 62bd c7f0 f7bd
00000370: 8920 cbbd e401 5a3d e23b 343d 9e3f aebd
00000380: 12c0 9fbd a432 a1bd ae0b cbba e9e7 ae3c
00000390: 115c b93c 1198 9dbd 244a 40be e537 2a3d
000003a0: db7e b93d 0e3f 253d 3fc8 01be 8ce9 5c3c
000003b0: 8ec2 e5bd 6e57 babd 5c5a 8bbd 6381 603d
000003c0: 447a 2dbd 5b72 b5bd cbc5 463d e3b8 62bd
000003d0: 8cf5 d43b dc68 0bbe 8ced 903d 980b 38bd
000003e0: 6293 89bd f0a0 9cbd c489 b93d a6d7 b4bc
000003f0: c63a 093b 33ce 423c adc2 68bd a1ac 36bc

fc2.bias f4 [84]
0.39808828 0.10278524 -0.06975251 -0.089400575 -0.022081165 0.2395141 -0.09280938 -0.041364532
-0.038932685 0.01322662 0.2094545 -0.043268714 -0.01060106 0.13516368 0.0062831175 0.028324476
0.13339113 0.021011734 -0.042654973 0.026131501 -0.016234525 0.26115474 0.27729848 -0.09920005
0.04355062 -0.0054111606 0.08015907 -0.02299819 -0.09016588 -0.06725482 -0.03942371 -0.018989362
-0.09430242 0.11823109 0.14361823 0.081976034 -0.06858323 0.12927228 0.05172462 0.18420313
-0.06319433 -0.08968585 -0.072110154 0.14624529 -0.015933927 0.22523126 -0.046523016 0.008386465
-0.022497911 0.24634387 -0.05405839 -0.07577522 -0.08451804 -0.0671023 0.0010625022 0.40699652
-0.1249928 -0.057005998 0.10304444 -0.08228532 0.19795819 -0.009920878 -0.07956385 0.06528587
0.14984722 -0.07197233 -0.040711876 0.53597546 0.08233962 -0.10632135 0.040770486 0.026216881
0.524645 -0.10118332 0.067711346 -0.0686938 0.08645822 -0.098801814 -0.033512723 -0.13602036
-0.07537151 0.07116814 0.16936126 -0.04005825
00000000: 3ad2 cb3e 1181 d23d 67da 8ebd a617 b7bd
00000010: 8fe3 b4bc 2f43 753e d812 bebd db6d 29bd
00000020: e177 1fbd 77b4 583c 3e7b 563e 893a 31bd
00000030: 12b0 2dbc 5968 0a3e 9ce2 cd3b bb08 e83c
00000040: af97 083e cd20 ac3c fbb6 2ebd bb11 d63c
00000050: 44fe 84bc 13b6 853e 11fa 8d3e 6529 cbbd
00000060: 2362 323d 1b50 b1bb 702a a43d b366 bcbc
00000070: e4a8 b8bd e5bc 89bd c27a 21bd 948f 9bbc
00000080: a121 c1bd 2423 f23d a810 133e 0de3 a73d
00000090: 5d75 8cbd f45f 043e 32dd 533d bf9f 3c3e
000000a0: 076c 81bd 37ad b7bd 7dae 93bd 53c1 153e
000000b0: de87 82bc 06a3 663e eb8e 3ebd 6267 093c
000000c0: 8a4d b8bc 9141 7c3e 556c 5dbd 0a30 9bbd
000000d0: cb17 adbd ee6c 89bd a843 8b3a d961 d03e
000000e0: 3afc ffbd 1f7f 69bd f708 d33d 3585 a8bd
000000f0: 8db5 4a3e 2e8b 22bc 5ff2 a2bd 99b4 853d
00000100: 8d71 193e 3b66 93bd 7fc1 26bd b035 093f
00000110: ada1 a83d 02bf d9bd f4fe 263d c9c4 d63c
00000120: 224f 063f 3339 cfbd 3fac 8a3d 56af 8cbd
00000130: 0211 b13d 9b58 cabd a344 09bd ec48 0bbe
00000140: 615c 9abd 9ac0 913d 0a6d 2d3e 1f14 24bd

fc3.weight f4 [10, 84]
-0.3114226 -0.26355729 -0.10377135 0.009573089 -0.03646092 0.23221965 0.09626574 -0.026315495
-0.033158056 0.042659644 -0.19040617 0.07256956 0.03597593 -0.023727087 -0.08903782 0.21931125
0.06224808 0.26544383 0.0706661 0.038453043 0.23954172 0.19050473 -0.00687072 0.05847292
-0.0040680594 0.030625695 0.035628326 -0.12311258 0.07637898 -0.119196236 0.24621859 -0.04081964
0.037162993 0.036620304 -0.1279766 -0.29854944 0.040081654 0.026614133 0.17032732 -0.086938255
-0.14243673 -0.023389917 -0.042107284 -0.08117852 0.060727615 -0.0069786026 0.040124517 0.22962554
-0.12599039 -0.107414104 0.07718326 -0.07798838 0.12886831 0.118071735 0.13490218 -0.11373522
0.25540394 0.19979745 -0.06606798 0.110444695 0.12384097 -0.1475522 0.10596159 0.042316366
0.27852553 -0.011576067 0.05257817 -0.17580613 -0.08903872 -0.06422625 -0.08076649 -0.055787083
-0.2040452 0.13689099 0.040823627 0.10631223 0.23949906 -0.03066015 -0.01641239 0.037271842
0.023228422 -0.18889347 0.23180825 0.029026581 -0.08269796 -0.084243506 0.024245534 0.058073666
-0.26054588 0.050939705 -0.094588034 0.008876913 0.074172355 0.3285326 -0.041334454 0.051069733
-0.19313858 0.052977413 -0.041230388 0.03626538 -0.18860112 0.096186936 -0.040858716 0.042666107
0.48885792 -0.03316903 -0.09749045 0.16754782 -0.10745949 0.036407292 -0.15277685 -0.010566498
0.13933462 -0.05698728 -0.14233808 -0.16584757 0.026482612 -0.23138957 0.187505 0.17280321
0.018685546 0.08156134 0.0070372312 -0.12580043 0.051714204 0.07626953 0.036875043 -0.27834135
-0.12768188 0.04816421 0.11527326 -0.11970147 0.029877571 -0.05326742 -0.030190492 -0.07676914
-0.12933786 -0.13713643 -0.061792675 -0.28562972 0.09807117 0.01221298 -0.13220893 -0.01908121
0.14992146 -0.1955076 -0.076719075 -0.18794014 -0.04982107 0.063414186 0.120219186 -0.15186745
-0.039156936 0.23772421 -0.09092635 0.0905032 -0.115614876 -0.0332285 -0.021200342 0.032693684
-0.11751818 0.19133846 0.057109654 0.14770699 0.28138545 0.34168726 0.15237924 0.11268486
0.20305419 -0.2566983 -0.018368289 -0.065041505 0.29021177 0.108093984 -0.088133715 -0.084129244
0.023383217 0.062507115 0.09497927 -0.07074594 0.16462754 0.02823537 -0.004776113 0.30454588
0.2050912 0.13569541 -0.0387279 0.1295982 -0.30213445 -0.010097431 0.15161933 -0.09553435
0.1946993 -0.12340735 0.08308249 0.028190814 -0.070828095 -0.06307603 0.10372861 0.17467837
-0.060896594 0.28563565 -0.07287082 -0.043059602 -0.0871281 -0.17591965 0.16365862 0.08729701
-0.008444524 0.004661219 -0.08748259 0.017511291 0.14301825 -0.19004272 -0.006700336 0.0152775785
0.18104245 0.1715729 -0.07233889 0.0594569 -0.090260506 0.10201229 -0.06681002 0.052560125
-0.020581933 -0.09512575 -0.06743412 0.00263733 -0.07259372 0.101061545 0.06691653 0.10339327
-0.1498631 -0.015339655 0.035489265 0.08364276 -0.108797014 0.15919141 -0.08369325 -0.09782343
0.01952229 -0.11964505 0.050486617 -0.12595977 0.12090977 -0.16718611 -0.07701852 -0.14841296
0.029638033 -0.071424544 0.06275495 0.018900314 0.17492367 0.15460263 0.004305473 0.011196532
00000000: c872 9fbe fbf0 86be 1386 d4bd 72d8 1c3c
00000010: 0c58 15bd fdca 6d3e f926 c53d 9893 d7bc
00000020: bed0 07bd e1bb 2e3d d6f9 42be 599f 943d
00000030: 7f5b 133d 4f5f c2bc 7659 b6bd 2193 603e
00000040: d8f7 7e3d 41e8 873e 63b9 903d f080 1d3d
00000050: 6d4a 753e ac13 433e c723 e1bb 4d81 6f3d
00000060: 5b4d 85bb bde2 fa3c 02ef 113d 7322 fcbd
00000070: 956c 9c3d 281d f4bd ba20 7c3e 7f32 27bd
00000080: 3938 183d 2cff 153d 4c0c 03be 79db 98be
00000090: a92c 243d e205 da3c 496a 2e3e af0c b2bd
000000a0: efda 11be 369c bfbc b078 2cbd ed40 a6bd
000000b0: 85bd 783d c3ac e4bb 9b59 243d f522 6b3e
000000c0: a003 01be edfb dbbd 4212 9e3d 5fb8 9fbd
000000d0: 0ef6 033e 98cf f13d cc23 0a3e 03ee e8bd
000000e0: 4ec4 823e b497 4c3e a64e 87bd d430 e23d
000000f0: 56a0 fd3d ed17 17be 6402 d93d ed53 2d3d
00000100: e69a 8e3e 8ba9 3dbc 355c 573d 8606 34be
00000110: ef59 b6bd 0d89 83bd e768 a5bd ff80 64bd
00000120: 3af1 50be 272d 0c3e ad36 273d 3aba d93d
00000130: 3e3f 753e ff2a fbbc 4773 86bc 5caa 183d
00000140: 8849 be3c 4a6d 41be 245f 6d3e 27c9 ed3c
00000150: 8c5d a9bd dc87 acbd 929e c63c a7de 6d3d
00000160: 4566 85be 27a6 503d 5fb7 c1bd 7970 113c
00000170: ade7 973d 6d35 a83e 514e 29bd 7f2e 513d
00000180: 1fc6 45be d8fe 583d 32e1 28bd 028b 143d
00000190: a720 41be a8fd c43d 785b 27bd a8c2 2e3d
000001a0: 964b fa3e 40dc 07bd 13a9 c7bd a891 2b3e
000001b0: b913 dcbd d01f 153d 8971 1cbe 1b1f 2dbc
000001c0: bcad 0e3e 7e6b 69bd 13c1 11be f2d3 29be
000001d0: 10f2 d83c 63f1 6cbe 5001 403e 53f3 303e
000001e0: 6e12 993c a209 a73d 9398 e63b d4d1 00be
000001f0: 46d2 533d 3333 9c3d 490a 173d c282 8ebe
00000200: 0abf 02be d647 453d 6314 ec3d 0b26 f5bd
00000210: cfc1 f43c f02e 5abd 0d52 f7bc 2439 9dbd
00000220: 2571 04be 7e6d 0cbe 511a 7dbd 0f3e 92be
00000230: 8ad9 c83d f318 483c c761 07be 3350 9cbc
00000240: 0385 193e 2533 48be e41e 9dbd 6173 40be
00000250: 2e11 4cbd 4cdf 813d 7a35 f63d 2483 1bbe
00000260: 0663 20bd fa6d 733e 9837 babd be59 b93d
00000270: 7ec7 ecbd 9c1a 08bd 57ac adbc d0e9 053d
00000280: 5fad f0bd 3bee 433e d0eb 693d 8040 173e
00000290: c111 903e a2f1 ae3e 4e09 1c3e 52c7 e63d
000002a0: 70ed 4f3e f66d 83be 1879 96bc 7b34 85bd
000002b0: a396 943e 6160 dd3d 737f b4bd f44b acbd
000002c0: 298e bf3c bb03 803d 7e84 c23d 3fe3 90bd
000002d0: 1f94 283e dd4d e73c f180 9cbb 70ed 9b3e
000002e0: 6d03 523e bdf3 0a3e 25a1 1ebd 64b5 043e
000002f0: 5eb1 9abe b26f 25bc 1942 1b3e 83a7 c3bd
00000300: 415f 473e febc fcbd 2727 aa3d 6cf0 e63c
00000310: 520e 91bd 012e 81bd aa6f d43d e3de 323e
00000320: b56e 79bd d63e 923e 4c3d 95bd 445f 30bd
00000330: 3870 b2bd 4824 34be 2096 273e c6c8 b23d
00000340: e75a 0abc 24bd 983b 122a b3bd d773 8f3c
00000350: 6073 123e 8f9a 42be 7e8e dbbb cf4e 7a3c
00000360: 3163 393e ceb0 2f3e 6926 94bd 1489 733d
00000370: 80da b8bd d2eb d03d b1d3 88bd 4949 573d
00000380: 719b a8bc 4ad1 c2bd e61a 8abd 0ed7 2c3b
00000390: 04ac 94bd 5bf9 ce3d 890b 893d dabf d33d
000003a0: b675 19be 2d53 7bbc 315d 113d e54c ab3d
000003b0: f8d0 debd 1303 233e 5e67 abbd a757 c8bd
000003c0: 36ed 9f3c 7708 f5bd 0ecb 4e3d 99fb 00be
000003d0: 8b9f f73d d632 2bbe e3bb 9dbd 91f9 17be
000003e0: 76cb f23c 0847 92bd ab85 803d d5d4 9a3c
000003f0: 311f 333e 2750 1e3e ed14 8d3b a971 373c

fc3.bias f4 [10]
-0.30438176 -0.40742576 0.15569322 0.16628651 0.5305721 -0.23276117 0.3305454 -0.26492652
0.33264393 -0.21154174
00000000: edd7 9bbe 1c9a d0be 0b6e 1f3e 0347 2a3e
00000010: 93d3 073f f258 6ebe 3f3d a93e 73a4 87be
00000020: 4e50 aa3e 669e 58be
